approx_vae/decoder_sd1.4.pt (torch, 3271 bytes, 6 tensors)

in_proj.weight f4 [12, 4]
00000000: b87a e2be 95b1 80be 3e3a e5be 3c2c 803f
00000010: 4b27 8bbe c0c9 eebc 0ac0 2e3d 344c 923e
00000020: 71dc 1c3f c721 b23e 0c2a 153d 357a 35be
00000030: 8c24 0f3e 6c85 893e 5c71 4a3e 285b 47bf
00000040: dc4f 3bbf 282b b93e 5ec2 82be 74ef 693d
00000050: 4397 16bf a482 27bf f7f5 573c 0b7b e43e
00000060: fd9a b23e b61b ddbd dbed 13bf f71f 043e
00000070: c15d 07bd 573b 003e cb25 503e 727f fcbc
00000080: d76a b33e 964c eebb 4bd8 193f 9446 03bf
00000090: 0ca1 8c3e 8e24 ee3e c2aa 723e b58e b0be
000000a0: 6d4e 763e dd69 ec3e 87d7 93bd ec0c c0be
000000b0: 0a58 dabe af15 5cbd cef5 b93e 0aab 023f
-0.44234252 -0.25135484 -0.44770998 1.0013499 -0.27178416 -0.029148936 0.04266361 0.28573763
0.61273867 0.34791395 0.036417052 -0.177224 0.13978785 0.26859605 0.19769806 -0.7787347
-0.7316873 0.36165738 -0.25538915 0.057113126 -0.5882456 -0.65433717 0.013181201 0.44625124
0.34883872 -0.10796301 -0.57784814 0.12902819 -0.033048395 0.12522636 0.20326917 -0.03082249
0.3504245 -0.0072723133 0.6009566 -0.5127957 0.2746662 0.46512264 0.23697951 -0.34483877
0.24053355 0.46174517 -0.07218843 -0.3750986 -0.42645293 -0.053731617 0.36320347 0.51042235

in_proj.bias f4 [12]
00000000: 6a2c 3c3f f195 88bd 507b fc3c 8a3b 9c3d
00000010: 085f 37be dab4 053f bd73 3fbf f7e1 1abf
00000020: 7a98 97be eacf 9d3d 32d5 8fbe f509 fc3e
0.7350527 -0.06669224 0.030820519 0.07628544 -0.17907345 0.5222908 -0.7478598 -0.60501045
-0.29608518 0.07705672 -0.28092343 0.49226347

hidden_layers.0.weight f4 [12, 12]
00000000: f3fb 2a3f a5fe 96be 2c8f 10bf e532 333d
00000010: 2799 4bbf 32d3 1bbf 3b56 013e 2533 573d
00000020: 0bdb a5bc 9586 cfbe 7676 b4be dc55 a9bf
00000030: dbe7 68be 02a8 85bd cfe4 eb3d adc2 ca3e
00000040: 8fa5 e2bd 4ce9 b2be d038 9fbe 51c9 c7bd
00000050: 3aeb 96bd ae00 e63e bfef 403c d232 1bbd
00000060: 9406 eebc da63 d13d 729b 8a3e e409 a5bd
00000070: 50e6 6abe 386a 15bf 211b c5be b709 a2bd
00000080: 09ae d1be bd44 8f3e 6087 483e d5c6 95be
00000090: 5fa0 d6be 1405 9d3d 9e6b e4be 1b91 fdbd
000000a0: e839 c73d bd1e 713e 6a7c 3fbf 90ef cfbe
000000b0: 6a34 a13d 025c 2ebe 2e49 c4be a07e b1bd
000000c0: fe12 40bd dd97 e53e ebb8 bcbe 1651 b1bc
000000d0: 81e8 b5bd 35b2 36be 02c6 1abf 0ae4 d43e
000000e0: 3a0c 9d3e 7a41 543e 1d09 1cbe 702b 223f
000000f0: 4caf 993e 3d4e 87be c52b 5dbe f81e 06bf
00000100: 2d0c fa3d 551b 9d3e 86a4 ac3d 76fc c5be
00000110: 795f dbbe 5283 1bbf 94a6 cebe a7d2 04be
00000120: 2b42 e33e 7729 253e 0662 d6bd a172 42bd
00000130: e997 e2be f687 9dbe be97 7dbe 816f ad3d
00000140: de9b 0f3e fbd5 193e 258e 0b3c 9a41 423b
00000150: 48c2 9dbc 14f9 72be 2874 edbd 6543 8fbc
00000160: d796 d0be 766c 45bf a12d 203e 3ac0 04bd
00000170: 0028 0e3f 486a 1abd 7975 97bc d1c3 963e
00000180: 9c6a b03e 0261 17be ab75 083e 6ebb 183e
00000190: 6695 9cbe d5fa dabe 3fe1 18bf e58c 7ebd
000001a0: 895c 2bbe 1e20 a7bd 76b5 a8be a2fc 77bf
000001b0: d671 30bf 8d68 40bf fcdb 0abe 8676 333e
000001c0: 9c1e 0c3c fcd0 8d3d 76f9 f33e 3392 ddbe
000001d0: 3e3d 273f 1168 1cbe aa2e adbe ba52 a1be
000001e0: 56db 2dbf 0fad e9be d4d9 8fbe 1d25 3b3e
000001f0: a25d 153e 00b9 91be 5b09 233d f8fe 68be
00000200: 4b07 1d3f 006d e43e 0ec1 27be 136d 923f
00000210: 199b 32bf 5e65 89be a68a 01bf 13cd 9ebd
00000220: b9e7 213e 38dc 49be 25ea 64bd 8f16 c6bd
00000230: 187c d03e 141d 7fbe 38d3 46bf 873e 05bf
0.66790694 -0.29491153 -0.5646846 0.04374971 -0.79530567 -0.60869133 0.1263055 0.05253901
-0.02024605 -0.40532365 -0.3524663 -1.3229327 -0.22744696 -0.065261856 0.11518251 0.3960165
-0.11066734 -0.34943616 -0.31098032 -0.09755195 -0.07369085 0.44922394 0.01177591 -0.037890263
-0.029055871 0.10224123 0.2707172 -0.08058527 -0.2293942 -0.583652 -0.3849726 -0.07912009
-0.4095309 0.2798213 0.19582891 -0.2925326 -0.41919228 0.07666984 -0.44613355 -0.12381192
0.097278416 0.23546882 -0.74799216 -0.4061246 0.07871325 -0.17027286 -0.38337082 -0.0866673
-0.046893112 0.44842425 -0.3685983 -0.02164511 -0.08882237 -0.17841418 -0.60458386 0.4158023
0.3067339 0.20728102 -0.15237851 0.6334753 0.30016553 -0.2642688 -0.21598728 -0.52391005
0.122093536 0.30684915 0.08429818 -0.38669175 -0.42846277 -0.60747254 -0.40361464 -0.12970982
0.4438642 0.16129099 -0.10467915 -0.0474726 -0.44256523 -0.30767792 -0.24764916 0.08468533
0.14024302 0.15023033 0.008517777 0.0029641152 -0.01925768 -0.23727828 -0.11594421 -0.01748819
-0.40740082 -0.77118623 0.15642406 -0.032409884 0.55529785 -0.037699014 -0.018488633 0.2944627
0.34456336 -0.147831 0.13326137 0.14915249 -0.30582732 -0.42769495 -0.597187 -0.062146086
-0.16734518 -0.08160423 -0.32950944 -0.9686986 -0.689237 -0.7515953 -0.1356048 0.17525682
0.00855222 0.06924626 0.4765126 -0.43275604 0.65327823 -0.15274073 -0.33824664 -0.31508428
-0.67912805 -0.45639846 -0.28095877 0.18275876 0.145865 -0.28461456 0.039803844 -0.22753513
0.61339253 0.4461441 -0.16382238 1.1439537 -0.6976791 -0.2683515 -0.50602186 -0.077539586
0.15811051 -0.19712913 -0.05588736 -0.096722715 0.40719676 -0.24913436 -0.77666044 -0.52048534

hidden_layers.0.bias f4 [12]
00000000: 3e82 e5be 3293 a4bc 1736 b43e 11c3 073e
00000010: 0cc8 c2bd dbd9 983e 2f75 6abe f690 3abe
00000020: 2700 acbd d294 bc3e 00b9 3cbe 7ee6 88be
-0.4482593 -0.02008972 0.35197517 0.13258006 -0.09510812 0.2985371 -0.22896264 -0.1821936
-0.083984666 0.3683229 -0.18429947 -0.26738352

out_proj.weight f4 [3, 12]
00000000: d098 0a3f fab0 513e 6de0 353e 5602 bbbe
00000010: a610 e6be e43c bbbe b52d cd3d ff49 7dbc
00000020: 131e a63e 5ecd dc3d ccdb 95be 867f efbe
00000030: bc87 e6be 5d00 1e3e 52a3 b13e d1d4 85be
00000040: 1351 23be 4881 acbe 229a d8bd 141a af3e
00000050: ec54 1abc 2320 b5bd 4390 923e 63e1 1e3d
00000060: 74e9 38be aecb c03e e8d3 40bd 7471 50be
00000070: ef77 8dbe 36ff 91be da6c 8cbe bf91 a0be
00000080: 52d8 61be 542c 173f 18f0 883e f377 5f3e
0.54139423 0.20477667 0.17761393 -0.3652522 -0.44934577 -0.36569893 0.100184835 -0.015459537
0.3244482 0.10781358 -0.29269254 -0.4677698 -0.45025432 0.15429826 0.34694916 -0.2613893
-0.15948896 -0.33692384 -0.105762735 0.34199584 -0.009419661 -0.0884402 0.28625688 0.038789164
-0.18057805 0.37655395 -0.04707709 -0.20355779 -0.27630565 -0.28515023 -0.27426797 -0.31361195
-0.22055176 0.59052014 0.26745677 0.21823101

out_proj.bias f4 [3]
00000000: fe35 3b3e d794 04bd 65c8 e9bc
0.18282315 -0.032368507 -0.028537938
