approx_vae/decoder_sd1.5.pt (torch, 3271 bytes, 6 tensors)

in_proj.weight f4 [12, 4]
00000000: 133d b03e e585 6c3d eab2 183e 1571 2fbf
00000010: d94a f0bd 8f28 53bd a3e6 f4bd 34a1 fd3e
00000020: 7029 f0be 360e 8ebe 3e7c 2f3c 6dd5 9cbe
00000030: c341 28bf 07bc 5dbe c5b2 30bd 8f29 0c3f
00000040: 681c fa3e 4ae2 883e 43bb 723e c725 13bd
00000050: 67d3 cfbe c7d6 c63e 4a9e a13f cacc 36bf
00000060: b1b9 473e 95b7 2c3f 65bf a1bd d451 1dbf
00000070: f622 95bd 19d2 e6be 28f5 5a3e b634 213e
00000080: 72d7 40be eac4 b1be 1e9b 1bbf f431 1c3f
00000090: 0fa2 6dbd e1ac 823d 083c ffbc 70df 033f
000000a0: 78fe bebd d3d6 bcbd aa49 4dbd 97b3 433e
000000b0: d627 e3be a35d 39be 7612 873e a429 9c3e
0.34421596 0.05774488 0.14912 -0.68531924 -0.11733026 -0.05155235 -0.11958053 0.4953705
-0.46906614 -0.27745217 0.010710774 -0.3063158 -0.65725344 -0.21653758 -0.043139238 0.54750913
0.48849797 0.26735145 0.23704247 -0.0359247 -0.40590975 0.38835737 1.2626431 -0.71406233
0.1950443 0.67467624 -0.07897834 -0.61452985 -0.07282059 -0.45082167 0.21382582 0.15742764
-0.18832186 -0.34720546 -0.60783565 0.6101372 -0.05801588 0.0638063 -0.031156555 0.51512814
-0.0932588 -0.09220662 -0.05011908 0.19111477 -0.4436633 -0.18102126 0.26381272 0.3050052

in_proj.bias f4 [12]
00000000: 7ee8 603e 777e f6bd 185a d5bd 6cce c13e
00000010: bdb8 b2be 4251 75be e3db 3abc 4ecd 3f3d
00000020: b3b5 163d 607d ccbe 8e30 26be f759 4d3e
0.21963689 -0.1203584 -0.10417575 0.378528 -0.3490657 -0.23956779 -0.011404964 0.046826653
0.036794376 -0.39939404 -0.1622946 0.2005385

hidden_layers.0.weight f4 [12, 12]
00000000: 8754 163d a70b 12bd 1096 8dbe abec 06bf
00000010: d9db 44bf 25b9 aa3e 786e 2bbf e35c 95be
00000020: 3957 1b3f e0c8 38be b164 89bc 290b efbe
00000030: a61e 01bf 389c 5d3e 0f4e 1dbf a196 2cbf
00000040: 02dd a53c fe68 0cbf e8fd e5bd 79d9 4cbf
00000050: 3c2a 523d c543 5e3e 022a a7bd e7bb 3dbf
00000060: 3533 3f3e bd1b b9be 1d8d 98bd 28e6 04bf
00000070: 7054 123e dc1e 063e 122a b33d 4b4c 27be
00000080: ff73 cfbe 4fb0 70bd 0ffb ecbe 2118 afbe
00000090: c4de a63e 8a9b 13bf d8e1 bb3e 0476 64bf
000000a0: 20b8 10bc 5bda f43d ee55 a5be ebde b83e
000000b0: 3a75 2ebe ed64 8dbc a7c3 90be 980e 9f3d
000000c0: d316 623e cadc 56be b36e 25be 566a 21bf
000000d0: c060 35bc 79ca 57be 3cda ae3d b046 0ebf
000000e0: 6c90 4c3e 5ced 913e 0793 10be 0262 57bf
000000f0: 2a0a 533d b20f 2e3e f5e5 00bf dc6d 9bbe
00000100: cba6 3a3d 649e ce3d 1201 00be 9777 1dbf
00000110: ffc8 f3be 1452 c93e 8924 3cbe 1811 8ebe
00000120: e2e4 08be 1bdf 20be 7b84 2bbe 1f95 b23d
00000130: a83c dabc 9e21 b1be a41d d2bd 1973 d7bd
00000140: f6ec 293e 1160 8c3d d902 1a3e d1fa 60be
00000150: 5b16 11bf 36b4 ea3d 9d8b 11bd 0622 41bb
00000160: 6af3 1dbe 226c 09be 6d66 6cbe d8e6 183e
00000170: 2a12 76bd 5b04 a43d 8ea8 b43e b54f dcbd
00000180: a53d d03e ed23 21be c7b8 65be 70ae 9cbe
00000190: eaad c53d c845 20be 9fdd db3d 2bca 05bf
000001a0: df4a 97be 99b7 d13d 1d2f d6bd 74bc 74be
000001b0: 499e 8abe e30c 5c3e ebdb 0c3e a913 553e
000001c0: b866 18bf 3b64 90be 4ac5 d7be a850 0f3e
000001d0: ab5c aebc 145e fb3b 879c 73bc a10f 7a3e
000001e0: 7148 15bd 8973 babc 55de 10bf 82b9 1abf
000001f0: bbb0 69be 3fc6 453f e3d2 6cbf 7751 f63c
00000200: e855 61bf 10d5 65be 4119 8c3d 0a8f b4bd
00000210: 203f 1dbe c42f 733e 3634 aa3e 910f 863e
00000220: d6c5 fbbe 59cc 99bd 9b78 34be 355b 933e
00000230: a16c 2bbd 00e0 f03c 242d 7c3e f7c0 b43e
0.036701705 -0.035655644 -0.2765355 -0.52704877 -0.7689796 0.3334438 -0.66965437 -0.2917243
0.60679966 -0.18045378 -0.016771646 -0.46688202 -0.5043739 0.21641624 -0.6144723 -0.6741734
0.020246986 -0.54847705 -0.112300694 -0.80019337 0.05130981 0.2170554 -0.08162309 -0.7411484
0.18671878 -0.36153975 -0.0744879 -0.5191369 0.14290023 0.1309771 0.08748259 -0.16337697
-0.40518185 -0.05876189 -0.46285293 -0.34198096 0.32591832 -0.5765921 0.36695743 -0.8924258
-0.008832961 0.119557105 -0.32292122 0.36107573 -0.17036906 -0.01726004 -0.2827427 0.077664554
0.22079019 -0.20982662 -0.1615551 -0.6305288 -0.01107043 -0.21073331 0.08537719 -0.5557661
0.19976968 0.28501403 -0.14118586 -0.84133923 0.051523365 0.16998175 -0.50350887 -0.30357254
0.045569222 0.10088804 -0.12500408 -0.61510605 -0.47614285 0.39320433 -0.18373312 -0.27747416
-0.13368562 -0.15710108 -0.16749756 0.08719849 -0.026640251 -0.3459596 -0.1025956 -0.1052
0.165943 0.06854261 0.15040149 -0.21970679 -0.56674737 0.11460154 -0.035533536 -0.0029469742
-0.15424886 -0.13420156 -0.23085947 0.1493181 -0.060075916 0.08008643 0.35284847 -0.107573904
0.4067203 -0.15736361 -0.22433768 -0.30601835 0.09652312 -0.1565162 0.1073563 -0.5226161
-0.2954931 0.102400966 -0.10458205 -0.23900014 -0.27073887 0.21489291 0.13755767 0.20808281
-0.59531736 -0.2820147 -0.42142707 0.13995612 -0.021284422 0.007671127 -0.014868862 0.24420024
-0.03644604 -0.02276017 -0.5658925 -0.6043931 -0.22821324 0.77255625 -0.9250929 0.030068142
-0.8802171 -0.22444558 0.06840754 -0.08816345 -0.15356112 0.2374869 0.3324296 0.2618375
-0.49174374 -0.07509679 -0.17624132 0.28780523 -0.041851643 0.029403687 0.24626595 0.3530347

hidden_layers.0.bias f4 [12]
00000000: c092 163e 7093 623d c662 bc3e 8fd0 efbd
00000010: 8230 9fbe 4423 913d 3ba2 edbd 5f1a 61bd
00000020: 9ce8 3dbd a709 453e 9d6c 23be 27b5 aa3e
0.14704418 0.05531639 0.36794108 -0.11709701 -0.31091696 0.070868045 -0.11603209 -0.05495679
-0.04636441 0.19241963 -0.15959401 0.33341333

out_proj.weight f4 [3, 12]
00000000: d2f7 013f 86bb de3e b05a 8f3e 9392 8abd
00000010: 9513 ef3d ba29 4c3e 11a5 ee3d ae40 26be
00000020: 58c2 b43e 7e5b 92be 2723 e4be 9c1b 2fbe
00000030: 2489 ffbe c348 f53d 1624 f73e 164c 88be
00000040: aeff 98be a744 d23e 27f5 58bc e61f 8cbd
00000050: 1b02 473e 5eb3 a0be 4bdc 743e 9d15 5abe
00000060: c82e 72be 95f5 80be 00ea f03e af6d 1f3f
00000070: b498 ba3d b4ad 70be c251 15bd a0d2 d7be
00000080: 60d2 0f3e 5ead 9abe 681b b23d 1c44 a7bd
0.5076877 0.43502444 0.27998877 -0.06766238 0.11673657 0.19937792 0.11652578 -0.16235611
0.35304523 -0.28585428 -0.4455807 -0.17100376 -0.49909317 0.11976769 0.4826972 -0.2662055
-0.29882568 0.41068003 -0.013242043 -0.06842022 0.19434397 -0.31386846 0.2391216 -0.21297307
-0.23650658 -0.25187364 0.47053528 0.6227674 0.09111157 -0.23503762 -0.036454923 -0.42152882
0.14045095 -0.30210394 0.086966336 -0.08167288

out_proj.bias f4 [3]
00000000: 0a19 1c3d 8715 d3bd 8cdb 1abe
0.038109817 -0.103068404 -0.15122813
