approx_vae/decoder_wd1.4.pt (torch, 3271 bytes, 6 tensors)

in_proj.weight f4 [12, 4]
000000 70 ef 86 be ce 4f d1 be b1 37 bf bb a0 e5 41 3f
       -0.2635455 -0.408812 -0.0058354964 0.75741005
000010 b5 13 09 bf 19 a5 19 be ab 24 63 be ea 5b 7c 3f
       -0.53545696 -0.15004386 -0.22181956 0.9857775
000020 46 f6 77 3e 82 ba 40 3f b6 fd 95 3e b9 bb 8a be
       0.2421504 0.7528459 0.2929513 -0.27096346
000030 67 d1 7d be 4e 9d 7c 3e d3 42 87 bf 57 0a 26 3f
       -0.24786912 0.24669382 -1.0567268 0.6485953
000040 03 39 90 bf 1c 8c eb 3e b5 51 34 be d7 ff fc 3e
       -1.1267399 0.46005332 -0.17609294 0.4941394
000050 6c 4e cf be 6f 95 3e bf 6e d0 18 bd 6e ec 4f bc
       -0.4048952 -0.7444677 -0.03730815 -0.012690647
000060 34 82 ac be 63 34 ea bd 81 84 0b bd c9 ff 4f 3e
       -0.33693087 -0.11435773 -0.034061912 0.20312418
000070 f4 3a 6e 3e ff f3 f0 3e e3 49 88 bd f4 11 26 bf
       0.23264676 0.47061154 -0.06654718 -0.64871144
000080 05 37 14 3f 08 b9 a6 be b8 3a 92 3e 9d 60 8f bd
       0.57896453 -0.32563043 0.28560424 -0.070008494
000090 e4 6a 37 bf 7d 33 a5 3e 6e d2 c1 bd ce 27 be 3f
       -0.7164748 0.32265845 -0.094639644 1.4855897
0000a0 c7 9a 00 3e 48 f4 87 be 9f b6 9b 3d 58 50 46 bf
       0.12559043 -0.2655356 0.076031916 -0.77466345
0000b0 92 31 96 be 03 b1 20 bd 3d 75 22 3f 8b 9e 27 3e
       -0.29334694 -0.03923131 0.6346014 0.16369073

in_proj.bias f4 [12]
000000 b7 b4 8b 3e 93 84 14 be 03 0e e8 3e 6b 68 95 bd
       0.27286312 -0.14503698 0.4532319 -0.07295307
000010 da 5d 5f be 82 89 97 be 6b 04 47 be 02 a3 c1 3e
       -0.21813145 -0.29597098 -0.19435279 0.37819678
000020 24 6b 12 3d 17 b7 03 bf 8f 46 6c be 0d 44 7c bd
       0.03574671 -0.5145125 -0.23073791 -0.061588336

hidden_layers.0.weight f4 [12, 12]
000000 46 83 e5 be 7c a9 c6 3d 21 61 dc 3e ec 7b 75 bd
       -0.44826716 0.09700295 0.43042853 -0.059932634
000010 30 92 01 bf 93 c2 3f bf a4 f3 1e be 3f 8a b6 3e
       -0.5061369 -0.7490627 -0.15522629 0.35652348
000020 d9 ad 9f 3e f8 01 f9 3d d7 4e 9c 3e 56 a3 09 bf
       0.31187323 0.12158579 0.305289 -0.53764856
000030 7d e6 9b 3e a3 7d c6 bd 37 12 a6 bd 84 8b 9d bf
       0.30449286 -0.09691932 -0.08108943 -1.2308202
000040 6d b9 40 be 00 d6 3d 3f 17 37 fb be dd c6 b6 bd
       -0.18820734 0.74154663 -0.49065468 -0.08924649
000050 02 f0 03 3e 5c f2 59 3b f3 51 d0 3e fb a5 1b 3f
       0.12884524 0.003325603 0.40687522 0.6080014
000060 1c 15 01 bf b1 37 73 3e c6 bc 1f 3e fa 24 ed 3c
       -0.50422835 0.23751713 0.15599355 0.028948296
000070 39 4e bc be cf 00 e4 be c9 b9 fe 3d cc 48 e1 bd
       -0.3677843 -0.44531867 0.124377795 -0.11000213
000080 1a bb 86 be 19 80 f5 3e 58 11 01 3e 53 6d 30 bf
       -0.26314622 0.47949293 0.12604272 -0.68916816
000090 3e 15 21 bf 8a c4 06 bf bb 94 3f 3e fd 31 d3 be
       -0.6292304 -0.52643645 0.1870908 -0.41249076
0000a0 da 91 1c bf 6c 80 a8 3e 0b e0 7d be b2 e5 a5 3e
       -0.6116005 0.32910478 -0.24792497 0.32401806
0000b0 be da 00 3e f4 cb c6 be a2 09 c1 3d cd 36 29 3f
       0.12583444 -0.3882748 0.094256654 0.66099244
0000c0 84 51 06 be 6a 0b 08 bf 00 7c 8d 3e 00 64 94 be
       -0.13117033 -0.53142416 0.27633667 -0.28982544
0000d0 9c 16 5a 3e 44 ed 45 be 07 35 f7 be d3 2b 1d 3e
       0.21297687 -0.19328791 -0.48282644 0.15348749
0000e0 54 5b 64 3e 35 7b 1f bd c2 d0 1b bd 48 25 fe bd
       0.22300464 -0.03893586 -0.038040884 -0.124094546
0000f0 56 7e 29 3f ec 95 37 bd b9 ad 08 bf 2c 51 cf 3c
       0.662084 -0.04482071 -0.5339008 0.02530726
000100 85 24 a4 3e 61 ee 49 3d 52 c9 74 be e2 85 99 be
       0.32059112 0.0492996 -0.23904923 -0.29984957
000110 eb db f3 be bf 9c 1f bc ae 8d 10 bb bc ee 28 be
       -0.47628722 -0.009741961 -0.0022057104 -0.1649732
000120 14 f1 c3 be 62 17 23 bf 4a db 8d 3e ff 9b ed 3d
       -0.38269866 -0.63707554 0.27706367 0.116020195
000130 b4 be a6 be 31 37 7c be 3d f7 0e be c5 32 4e 3d
       -0.3256737 -0.24630429 -0.13961501 0.050341386
000140 cf 50 f0 bd 69 af 3b 3f 16 51 b4 3e 87 1f 8f 3f
       -0.11734163 0.7331453 0.35218114 1.1181496
000150 8b f4 1c bf ee 2a 96 bd 1b 24 4b 3e 74 a4 39 3e
       -0.6131064 -0.07332407 0.19837992 0.1812914
000160 53 a2 1a bf 79 22 4e bd a5 fc bb bd c5 7b 4b bf
       -0.6040394 -0.050325844 -0.091790475 -0.7948573
000170 e1 9d 62 bf ba a6 29 be b6 3d dc be 35 d9 d1 be
       -0.88522154 -0.16567507 -0.43015832 -0.40986028
000180 70 f6 41 bf 29 1c d5 be f3 00 99 bd f8 12 69 3e
       -0.7576666 -0.41623047 -0.07470884 0.22761142
000190 c5 fb 18 be 03 06 25 3e f0 8e e7 bd 15 ba df 3e
       -0.14939792 0.16115575 -0.1130656 0.43696657
0001a0 8b 02 f8 3d 0e 0b f1 be b5 ea a4 3e f1 da 04 3f
       0.1210986 -0.47078747 0.32210317 0.5189658
0001b0 ea a0 00 be 2f 6a c5 bd 84 33 a0 be ed 1f f1 be
       -0.12561384 -0.096393935 -0.31289303 -0.4709467
0001c0 18 3e 38 bd 7c a5 7a 3e 9c 4a 0c bf fa 90 8e be
       -0.044981092 0.2447719 -0.54801345 -0.27844983
0001d0 b1 d3 de be 61 8e 6c 3c 75 c0 00 bf c2 e5 b9 3d
       -0.43520883 0.014438243 -0.50293666 0.09077026
0001e0 7d 37 ba bd ba 67 2a be 13 01 2c be 6f c7 6a 3d
       -0.09092615 -0.16641131 -0.16797285 0.0573191
0001f0 88 1b 57 be c2 04 3c bf c3 04 38 be ca c8 d9 3c
       -0.21006596 -0.7344476 -0.17970566 0.026585001
000200 2c 46 78 3e f6 13 80 be 82 a6 92 3b bd 3c 4b be
       0.24245518 -0.2501523 0.0044754157 -0.19847389
000210 3c 4a eb be a7 cd 2f 3f ab f3 a6 bf f6 2d 05 3f
       -0.45955074 0.68673176 -1.3043112 0.52023256
000220 8b f2 31 bf b0 56 dc be 02 a2 85 bd 0e 01 1b bf
       -0.69510716 -0.43034887 -0.06525041 -0.60548484
000230 22 60 e5 be 57 27 53 bf dc 3c 05 3f e1 ac f4 be
       -0.44799906 -0.824819 0.5204599 -0.47788146

hidden_layers.0.bias f4 [12]
000000 a2 22 a4 3e 6f a0 70 be 06 b4 91 bd 49 3e 00 be
       0.32057673 -0.234987 -0.07114415 -0.1252376
000010 4e 53 9a bd ac 55 82 3e 20 69 5c be d1 62 a0 3d
       -0.0753542 0.25455987 -0.21524477 0.07831348
000020 b5 45 28 3d a9 d1 15 3e 24 ae 88 3d 1f 6b 72 be
       0.041082103 0.1463076 0.0667384 -0.23673676

out_proj.weight f4 [3, 12]
000000 96 16 d0 3e b4 75 0a bc df 0d fa 3e e1 1e 28 be
       0.40642232 -0.008450914 0.48838708 -0.1641803
000010 5b 02 27 3d 09 63 bd be 7e fb b9 be 8d f7 52 3e
       0.04077373 -0.3698962 -0.36324686 0.20602246
000020 10 b9 19 bd ab 6d 12 bf 40 1b a0 3e 8d ff cb 3e
       -0.037530005 -0.5719859 0.3127079 0.39843407
000030 2c a2 6c 3e e2 e3 b2 bd c6 9d 0e 3d c9 2a 6e bc
       0.23108739 -0.087348714 0.034818433 -0.014536568
000040 6c a6 a5 3e 1b ac e7 be 7c 0c 4e 3e 9c bf 58 bb
       0.32353532 -0.45248494 0.2012195 -0.0033073192
000050 8e e9 d6 bc 56 f5 41 be f9 37 c7 3c 9f f7 f0 be
       -0.026234414 -0.18941244 0.024318682 -0.4706392
000060 12 f7 e8 bd 48 81 a6 bd 9c 74 40 bd c7 ad 01 3f
       -0.1137525 -0.08130127 -0.046986207 0.5065579
000070 28 19 ba 3e d9 0c e2 be 3e 6e 1c be 2e 8d 3c bf
       0.36347318 -0.44150427 -0.15276429 -0.73652923
000080 98 60 c0 3e 70 19 8a 3d 64 0f 0d 3e 2b 82 37 3a
       0.37573695 0.06743133 0.13775402 0.00070002925

out_proj.bias f4 [3]
000000 93 8e 22 bd 2d 41 3b be d8 cf 67 be
       -0.03968675 -0.18286581 -0.2263788
