approx_vae/decoder_wd1.5.pt (torch, 3271 bytes, 6 tensors)

in_proj.weight f4 [12, 4]
000000 e6 48 d0 be ab 73 5b bf f7 24 34 bd c8 ec aa be
       -0.40680617 -0.8572337 -0.043980565 -0.33383775
000010 b2 94 87 be a5 8e 11 bf f9 36 bb be 53 d5 31 3e
       -0.26480633 -0.56858283 -0.36565378 0.17366533
000020 d2 d8 13 bf 05 0f 84 3d cf bc d7 3c 87 c6 7f 3e
       -0.57752717 0.06448177 0.026335148 0.24978076
000030 21 8c 13 3f 49 4d 80 3e aa bb 97 be 7e c7 86 be
       0.57635695 0.25058964 -0.29635364 -0.26324075
000040 99 9c 05 bf 1d b4 1a bd a0 d4 7f 3e fb 50 1f 3e
       -0.52192074 -0.037769426 0.24983454 0.15558235
000050 52 3b c2 bd 32 1a 88 be 01 27 50 3f 22 a5 3d 3c
       -0.09483971 -0.26582485 0.81309515 0.011575015
000060 5f 4f 04 bf 47 a7 da 3c 37 a7 6d be 63 e3 67 3f
       -0.5168361 0.026691092 -0.23208319 0.9058134
000070 b6 9d c1 3e cb 8c bb 3e aa b4 aa bc dc 32 e6 be
       0.37815636 0.36630854 -0.0208381 -0.44960678
000080 f6 db f6 3e bf d7 f9 3e 75 c5 d3 3e 5c 4a a6 be
       0.48214692 0.48797414 0.41361585 -0.32478607
000090 b0 a9 f4 be 89 b2 6d 3f 08 45 63 be 70 58 0c bf
       -0.4778571 0.9285055 -0.22194302 -0.54822445
0000a0 6e 4f 6b 3e be 53 fc be dd 39 bf 3e 19 fc 90 3e
       0.22979519 -0.4928264 0.37348834 0.28317335
0000b0 47 d8 0c bd e7 2e be 3c bd 30 d0 be c5 16 a3 3e
       -0.034385946 0.023215724 -0.40662184 0.3185331

in_proj.bias f4 [12]
000000 90 fa ce be 71 e9 1e 3e 89 58 80 be 06 d7 90 bd
       -0.4042554 0.15518738 -0.25067547 -0.070722625
000010 f0 ba c5 3e bb 03 23 3e 6f aa 14 3f 61 1a 28 3e
       0.38619184 0.15919392 0.5807256 0.16416313
000020 6c 61 a4 3e 69 2f 00 bf d6 38 9a bd c8 7e 28 bd
       0.32105577 -0.5007234 -0.07530372 -0.041136533

hidden_layers.0.weight f4 [12, 12]
000000 41 d0 eb bd 70 a6 f7 3e c7 16 98 be 32 96 b0 bf
       -0.11514331 0.4836917 -0.29704878 -1.3795836
000010 52 af cb 3e 56 bc 94 3e 3f a5 b0 3e 8c 48 76 be
       0.39782196 0.2904994 0.34501073 -0.24051112
000020 15 12 0c 3f 6c 59 6e bd 70 cc 12 be 7f 48 63 3e
       0.5471509 -0.058190748 -0.14335799 0.22195624
000030 30 4b 18 bf d3 3c 19 3f bb b8 f1 be 7d 38 a6 bd
       -0.5948973 0.59858435 -0.4721125 -0.08116243
000040 a2 cb 70 bf c2 8e 00 3f af 26 a1 be ea 83 69 be
       -0.9406072 0.5021783 -0.31474826 -0.22804227
000050 c0 39 ed bd 4e ee 20 bf d2 83 aa be e1 47 0a 3f
       -0.115832806 -0.62863624 -0.33303696 0.5401593
000060 4a ed b2 3d 9d 35 b3 3a 9c 20 12 bd ad b6 2b bf
       0.087366655 0.0013672594 -0.03567563 -0.67075616
000070 6f a4 b0 bd 3f 1c 1e 3e 82 65 d1 3d b5 55 18 bf
       -0.08625113 0.15440463 0.10224439 -0.5950578
000080 9f 0c 73 be 3b ec 8b 3e 9a da cd bc 63 42 07 bd
       -0.23735283 0.27328667 -0.025128651 -0.033022296
000090 57 7b 5a bf 3b 49 d0 3e ba e6 0e bf 39 83 27 be
       -0.8534445 0.4068087 -0.5582081 -0.16358651
0000a0 0e 02 91 bd f6 c3 20 bd 88 86 e2 be 60 c0 f8 bd
       -0.0708047 -0.039249383 -0.44243264 -0.121460676
0000b0 68 0f 81 be 50 5c 9b 3e fb 94 be bf a6 28 c1 3e
       -0.25207067 0.30343866 -1.4889215 0.37726325
0000c0 69 88 0f be f1 60 d2 3c 21 34 73 be 3f f2 a9 bc
       -0.1401688 0.02568099 -0.23750354 -0.020745395
0000d0 c9 c7 03 3e cd b7 67 3c af db 7b 3e 43 4c aa be
       0.1286918 0.014142943 0.24595521 -0.33261308
0000e0 1b 30 2e be 47 3a 99 be 64 ff 81 3d 21 bc 47 3e
       -0.17010538 -0.29927275 0.0634754 0.19505359
0000f0 dd df 78 be ea e0 12 bf 24 ee 30 3e db 9d 81 be
       -0.24304147 -0.5737444 0.17278343 -0.25315747
000100 18 aa 80 bc f0 40 7c 3e 23 ea 2d bf e0 64 25 be
       -0.015706107 0.24634147 -0.6793539 -0.16151762
000110 bf 23 6a 3e 39 7b 05 3f 3c 6f a5 be 38 27 8e be
       0.22865199 0.5214115 -0.32311428 -0.27764297
000120 8f 16 ce 3e fb b2 fd be dc 60 a4 be ae 03 9b 3d
       0.40251586 -0.49550614 -0.32105148 0.07569061
000130 a5 5a 00 bf 09 28 1e bf 07 07 de 3d 41 48 b6 3e
       -0.5013831 -0.6177984 0.10841184 0.35602
000140 65 37 4a 3e 19 9f 8c be 34 56 c9 be ad f8 b2 3d
       0.19747694 -0.27465132 -0.3932358 0.087388374
000150 0e 7e 0e 3f 5f 6f 0e bd 7d d0 74 3e a0 b0 fc 3e
       0.55661094 -0.03477418 0.23907657 0.49353504
000160 51 eb 34 be 3e c8 80 bd 64 d2 e8 bf 9f c6 ff 3d
       -0.17667891 -0.06288193 -1.8189206 0.12489056
000170 fa 4a 65 be 84 da b8 be de 50 31 bf 50 c3 94 be
       -0.22391883 -0.36104214 -0.6926402 -0.29055262
000180 a4 60 53 bd f2 6e ee bd 90 2f 3e be 90 75 a5 3e
       -0.051605836 -0.11642255 -0.18572831 0.32316256
000190 83 2e 95 b9 93 2c 19 3f b3 ea 6a bf 38 57 bc be
       -0.0002845415 0.5983364 -0.9176437 -0.36785293
0001a0 ea 0e ef bd bf 37 fc 3c 8a 26 19 bf dd 3f aa 3e
       -0.116727665 0.0307883 -0.5982443 0.3325185
0001b0 bb 6f a3 3d 6a de be 3d d6 6a 8f be 65 76 58 bd
       0.07980295 0.09319766 -0.28011197 -0.052847285
0001c0 c0 2a cd 3d d5 4d 69 3e 26 ee 89 3e c2 8c 05 bf
       0.100179195 0.22783597 0.26939505 -0.52167904
0001d0 a6 0f 63 bf 38 c4 df bd 84 b2 1d be 3b 82 4b 3e
       -0.8869575 -0.10926098 -0.1540013 0.19873898
0001e0 c8 17 1e 3e f4 5d 25 bf 92 0b 43 3e 35 6b 0e bc
       0.1543876 -0.64596486 0.19047382 -0.008692552
0001f0 d8 67 15 bf 6b 67 4d 3d fb 53 53 bf a5 ba bc 3d
       -0.5836158 0.050147455 -0.8255002 0.09215287
000200 a4 a3 d8 3d ea 87 9d 3d f3 de 5c 3e ab 2f 6f bf
       0.10578087 0.07691939 0.21569423 -0.9343211
000210 15 45 4f bb 8a ac 51 3e 17 14 9f 3a 40 39 46 be
       -0.003162687 0.20475975 0.0012136725 -0.19357777
000220 5a 48 30 3e 3a 5b cb 3d ca 82 0c 3e a2 33 0a bf
       0.172151 0.099295095 0.13721767 -0.53985035
000230 71 01 b5 be 48 49 e4 bd ff 64 f0 bd c7 82 47 3e
       -0.35352662 -0.1114679 -0.117380135 0.19483481

hidden_layers.0.bias f4 [12]
000000 61 d0 1c be 4d 1e 5e be f8 ce e1 3e d4 a5 ba 3c
       -0.15313865 -0.21691246 0.44103217 0.022784151
000010 ef 54 5c be f4 ac bc ba 8a 03 52 3e d1 fe f7 bd
       -0.21516775 -0.0014394806 0.20509163 -0.12109149
000020 93 43 a2 3e 21 9a 7b 3e 53 12 00 be 53 f4 dc 3e
       0.3169218 0.24570514 -0.1250699 0.43155155

out_proj.weight f4 [3, 12]
000000 7b 87 8f be 8c 98 ed 3e f3 3e 06 bf 5e 39 e2 3e
       -0.2803305 0.46405447 -0.524398 0.44184393
000010 25 9e 86 bd 53 6c 26 bd b4 cc c1 3e 90 8d 21 bd
       -0.065731324 -0.04063065 0.3785149 -0.039441645
000020 aa 67 b8 be 84 15 6d 3d 02 1b 8f 3e d4 86 76 be
       -0.3601659 0.057881847 0.27950293 -0.2407487
000030 25 7f a9 3e 03 c9 ad be 85 8b be be 2d fb 35 be
       0.33104816 -0.33942422 -0.3721582 -0.17771597
000040 77 ec 3f be e7 17 64 3e dd e6 57 3e ba f1 1b 3d
       -0.18742548 0.22274743 0.21084161 0.038072325
000050 a1 d8 8d bd e8 d5 04 bf 9a f0 23 3e 62 e2 0e bf
       -0.06926084 -0.51888895 0.16009751 -0.5581418
000060 81 2b 89 be e8 9d 7e be fa e7 f6 3d ba 8f 72 be
       -0.26791003 -0.24864924 0.12055965 -0.2368764
000070 8c 8a ba be dc c2 b7 3e c6 81 50 be 01 25 bd 3e
       -0.36433828 0.35890853 -0.20362005 0.36942294
000080 06 d3 48 3f 5e fe 36 bd df ab 11 3f 98 4c af be
       0.78446996 -0.044676177 0.5690288 -0.34238124

out_proj.bias f4 [3]
000000 7d 09 9e 3e 8c 53 20 3e b8 5d 36 3e
       0.30866614 0.1565687 0.17809188
