approx_vae/decoder_wd1.3.pt (torch, 3271 bytes, 6 tensors)

in_proj.weight f4 [12, 4]
0	0xbed07d52	-0.40720612
1	0x3ecce725	0.400201
2	0xbe7e9948	-0.2486316
3	0x3fae756e	1.3629587
4	0x3ea16b3c	0.31527126
5	0x3d9b75b2	0.07590808
6	0x3dcec220	0.1009562
7	0xbf00f693	-0.5037624
8	0x3c151178	0.009098403
9	0xbe1e4c0b	-0.15458696
10	0x3f628290	0.8848047
11	0xbdd1f8e6	-0.10252552
12	0xbf09af46	-0.5378307
13	0xbdb96a7b	-0.09053513
14	0xbdb4f98f	-0.08836662
15	0x3f30745e	0.6892756
16	0x3f1f9815	0.62341434
17	0x3e5cfd6d	0.2158105
18	0x3e3b6a34	0.18302232
19	0xbea57737	-0.32317516
20	0xbc96c126	-0.018402647
21	0xbf1a8355	-0.60356647
22	0x3db92d70	0.0904187
23	0xbdd5ca55	-0.104389824
24	0x3de1c1ac	0.11023268
25	0xbda25943	-0.079271816
26	0xbf4b3ff9	-0.7939449
27	0x3d7852eb	0.06062595
28	0xbe91d4fb	-0.28482804
29	0x3e9a1ec8	0.3010161
30	0x3de2691e	0.11055206
31	0xbec3e15f	-0.38257882
32	0xbf286a2d	-0.6578701
33	0xbf016342	-0.5054208
34	0xbf024a75	-0.5089486
35	0x3eba8429	0.36428955
36	0xbec4445c	-0.38333404
37	0xbef9de37	-0.4880235
38	0x3e0f4259	0.13990153
39	0x3f1196f9	0.5687099
40	0xbf76feb5	-0.964824
41	0xbdcc00d7	-0.09961098
42	0x3eadefe7	0.33972093
43	0x3ec9ffab	0.39452872
44	0xbe48ffa6	-0.19628772
45	0xbe1af64e	-0.1513302
46	0xbedf34d3	-0.4359499
47	0x3f68cc13	0.9093639

in_proj.bias f4 [12]
0	0x3da478da	0.08030863
1	0x3dde8d72	0.10866822
2	0x3ea1cf45	0.31603447
3	0x3e109c57	0.14122139
4	0x3e8dbc43	0.27682695
5	0xbafd0fcb	-0.0019307075
6	0xbdbd67ab	-0.09248289
7	0xbd9e5c4a	-0.077324465
8	0x3e1ff10b	0.15619294
9	0x3f00918c	0.50222087
10	0x3e6f5306	0.23371515
11	0x3eebb610	0.4603734

hidden_layers.0.weight f4 [12, 12]
0	0xbd3836eb	-0.04497425
1	0x3ca93fa6	0.020660233
2	0x3e626bee	0.22111484
3	0x3e67e9e0	0.2264781
4	0x3d08fcba	0.033444144
5	0x3dc62984	0.09675887
6	0x3def00f6	0.11670105
7	0xbe034973	-0.12820987
8	0x3e9d322c	0.3070234
9	0xbf17ad3a	-0.592487
10	0xbf579b0d	-0.84220964
11	0x3e76e716	0.2411159
12	0xbe9d5387	-0.3072779
13	0x3df59ee0	0.119931936
14	0x3e2c88c1	0.16849042
15	0xbf2845e6	-0.65731657
16	0x3ea6fa9d	0.32613078
17	0xbf146995	-0.57973605
18	0x3e08e237	0.13367544
19	0x3ea395bd	0.3195018
20	0xbe6e3fc0	-0.23266506
21	0xbe5ac1a4	-0.2136293
22	0x3e81e067	0.25366518
23	0xbef57b68	-0.47945714
24	0x3e94c53e	0.29056734
25	0xbafd580a	-0.0019328606
26	0x3ee3967b	0.44450745
27	0xbf2caa4d	-0.6744736
28	0xbcd9a969	-0.026570039
29	0xbf80c698	-1.0060606
30	0x3e528a86	0.20560655
31	0xbe44c011	-0.19213893
32	0xbf734c08	-0.9503789
33	0xbe8e4c59	-0.27792624
34	0x3eb8dcd5	0.3610598
35	0x3bb87faa	0.005630453
36	0xbefe362d	-0.49650708
37	0xbf190598	-0.5977416
38	0xbea6cd9c	-0.32578743
39	0x3db7d2a5	0.08975724
40	0xbf51fc76	-0.8202585
41	0xbe83db7b	-0.25753388
42	0xbe8bfce1	-0.2734137
43	0xbf08c081	-0.5341874
44	0x3e617b8d	0.22019787
45	0x3f064103	0.5244295
46	0x3e6877a0	0.22701883
47	0x3f019df5	0.5063165
48	0x3ef42196	0.47681874
49	0xbeaea0ae	-0.34106964
50	0x3ec45055	0.38342538
51	0xbf29e57d	-0.66365796
52	0xbf0b2037	-0.5434603
53	0xbef0f071	-0.47058442
54	0x3e85a179	0.26099756
55	0x3bb621c9	0.0055582267
56	0xbe5d0913	-0.21585493
57	0x3e847634	0.25871432
58	0x3e76ef5d	0.24114747
59	0xbe1b7347	-0.15180694
60	0x3e2e2648	0.1700679
61	0x3e3cb9d8	0.18430269
62	0xbea54f9c	-0.322873
63	0xbad11468	-0.0015951516
64	0x3dc22993	0.09480586
65	0xbebf71dd	-0.37391558
66	0xbe84fe71	-0.25975373
67	0x3e8f2878	0.27960563
68	0xbf03bdf6	-0.5146173
69	0xbebd4c26	-0.3697216
70	0xbe994bcf	-0.2994065
71	0x3cf82d9d	0.030295188
72	0xbe27fccf	-0.16405033
73	0xbe908db6	-0.28233117
74	0xbf32c9cd	-0.69839174
75	0x3ba0259e	0.004887297
76	0x3d41250f	0.047154482
77	0xbf17074e	-0.5899552
78	0x3e69d078	0.22833431
79	0xbe9d2219	-0.30690077
80	0x3e430dcc	0.19048232
81	0xbf23894e	-0.63881385
82	0xbf633b52	-0.8876239
83	0x3f444f7f	0.766838
84	0x3e582725	0.21108682
85	0x3da0b366	0.078467175
86	0xbd4c383c	-0.049858317
87	0xbf0fddcb	-0.56197804
88	0x3d82d34e	0.063879594
89	0xbea4076b	-0.3203691
90	0x3e91af33	0.2845398
91	0xbdd7a133	-0.10528793
92	0xbe8f3a9c	-0.27974403
93	0xbe6d8286	-0.23194322
94	0xbcdab7ba	-0.026698936
95	0xbe93519f	-0.2877321
96	0x3d7324bb	0.0593612
97	0x3de646c0	0.11243963
98	0xbde84c8d	-0.11342726
99	0xbe0bc772	-0.13650301
100	0x3d8ce653	0.06879868
101	0xbeae4c99	-0.34042814
102	0x3e3682a8	0.17823279
103	0xbd3f8b92	-0.046763964
104	0xbd875fb0	-0.06610048
105	0xbe4d30c0	-0.20038128
106	0xbea8a6d6	-0.32939786
107	0xbdda5a40	-0.10661745
108	0xbe99aa79	-0.30012873
109	0xbee17acc	-0.44039
110	0xbcde6846	-0.02714933
111	0x3ee47f45	0.4462835
112	0xbec0ca24	-0.3765422
113	0x3e343a2c	0.17600316
114	0xbf2afa7e	-0.6678847
115	0xbdcf5b7a	-0.1012487
116	0x3f006fde	0.50170696
117	0x3e658c2f	0.22416757
118	0xbe641d69	-0.22276844
119	0xbecde52e	-0.40213913
120	0xbd84c2e1	-0.06482483
121	0xbf46b248	-0.77615786
122	0x3ec87eff	0.3915939
123	0xbf987da6	-1.1913345
124	0xbe84e630	-0.2595687
125	0x3f745988	0.95449114
126	0x3f398b55	0.7247823
127	0x3e967078	0.29382682
128	0xbe4e3d68	-0.20140612
129	0xbf2dc781	-0.67882544
130	0x3ec858de	0.391303
131	0xbf123646	-0.57114065
132	0xbd8decaf	-0.069299094
133	0x3e229c9a	0.15880051
134	0x3eac0675	0.33598676
135	0xbf18b143	-0.5964548
136	0x3e4748ed	0.19461413
137	0xbcc7a39e	-0.024370011
138	0x3dae0826	0.08497648
139	0x3dc570b3	0.09640636
140	0xbf0ef1bb	-0.558376
141	0xbe59129c	-0.21198505
142	0x3e77f7a5	0.24215563
143	0x3e2e6fce	0.17034838

hidden_layers.0.bias f4 [12]
0	0x3da68779	0.08131308
1	0x3dababf2	0.08382405
2	0xbe1db200	-0.15399933
3	0xbc41aa90	-0.01182045
4	0x3df1315c	0.11776993
5	0x3e47e03b	0.19519131
6	0xbec006cc	-0.37505186
7	0x3e80ae47	0.25132963
8	0x3c7f17ca	0.015569637
9	0x3cd411f4	0.025887467
10	0xbe3962b8	-0.18104064
11	0xbe198f8a	-0.14996162

out_proj.weight f4 [3, 12]
0	0x3f1d3bf0	0.6141958
1	0x3d1510cb	0.03639297
2	0xbdfb23c1	-0.12262679
3	0xbe009396	-0.125563
4	0xbeeee0de	-0.46655935
5	0x3f107c06	0.56439245
6	0x3e59c913	0.2126811
7	0x3e0aa6e3	0.13540225
8	0x3ebc1b3e	0.36739534
9	0xbe96e642	-0.29472548
10	0xbe828363	-0.25490865
11	0x3bf2cb2f	0.0074094753
12	0xbe16a80b	-0.14712541
13	0x3dbb8dad	0.09157882
14	0x3ecfcf94	0.40588057
15	0xbe4b12cd	-0.1983139
16	0x3d8d5d8b	0.069026075
17	0x3ec2db51	0.3805795
18	0xbe9e1a90	-0.3087964
19	0x3ef62454	0.4807459
20	0x3e9c0859	0.3047512
21	0xbdbba227	-0.091617875
22	0xbe64151d	-0.22273679
23	0x3ecaffd3	0.39648303
24	0x3e2853d1	0.16438223
25	0x3f194d32	0.59883416
26	0xbed62e15	-0.41832033
27	0xbecc2b09	-0.39876583
28	0xbe38183e	-0.17977998
29	0x3c8db6f2	0.01729915
30	0xbed12889	-0.40851238
31	0x3dd73f47	0.10510116
32	0x3e3d3f94	0.18481284
33	0x3e88f958	0.26752734
34	0x3ee11b47	0.43966123
35	0x3ef1324f	0.47108695

out_proj.bias f4 [3]
0	0x3c5d72ff	0.013516187
1	0xbdf4c4d7	-0.11951607
2	0x3ca21656	0.019786041
