approx_vae/encoder_wd1.4.pt (torch, 3271 bytes, 6 tensors)

in_proj.weight f4 [12, 3]
00000000: 18c4 df3e f96e 12bf ba34 02be 109c 0e3d
00000010: 69e6 95bf a298 883f 684f 843e ff85 3d3e
00000020: 8a85 41bf 3d1f 133f c10a ed3e d6ed 85bf
00000030: fbb1 083f 810e 643f 50bf 8c3e 7c02 8bbe
00000040: 8d66 03be 9c33 3dbf b0b5 3b3f 97f1 503e
00000050: 0f43 2b3e d722 283e eaa2 1e3f ff8e a53f
00000060: a24a 98be b9ed 90bf cf53 dfbe f667 943f
00000070: 3aa6 d4bf 4051 4a3f 9ecc 9a3f 3bcb b6be
00000080: 5cba 5cbf e39d 8abf 9fdb bebe 2ea9 973e
0.43704295 -0.5720058 -0.12715426 0.0348168 -1.1710941 1.067158 0.25841832 0.18508147
-0.7559439 0.5746954 0.46297267 -1.0463207 0.53396577 0.8908463 0.2748971 -0.27150333
-0.12832089 -0.73906875 0.7332411 0.20404659 0.167248 0.1641954 0.6196734 1.2934264
-0.2974444 -1.1322547 -0.43618628 1.1594226 -1.6613228 0.7903023 1.2093694 -0.35701928
-0.8622186 -1.0829433 -0.37276933 0.2962126

in_proj.bias f4 [12]
00000000: 2bd3 1ebd 67da 3d3d 2ed2 19be df12 c23d
00000010: a2f6 843b dd87 09bf 3c61 dbbe 0e16 23bf
00000020: 5247 08bf 4865 503a b3e8 7fbe c3ee 17bf
-0.038775604 0.046350863 -0.15021583 0.094762556 0.0040577212 -0.53722936 -0.4284762 -0.6370553
-0.53233826 0.00079496624 -0.24991111 -0.59348696

hidden_layers.0.weight f4 [12, 12]
00000000: 63cc 4abf 2845 283e dce9 e4be 0b36 e1bd
00000010: 1b6a c53e 125b 063e 29da 46be ab20 16be
00000020: 8cbd 87be 5b04 a0be d62b 8fbf 4de0 033f
00000030: 3916 833c 37fb 323f 73ff 27bf 5b86 c9bf
00000040: a2cc 3ebc f120 473d b4a2 a0be 4c3c 693e
00000050: 18ce 813f fe75 0b3f cb49 23bf dc8c bfbd
00000060: 71c8 983e fe32 94bf dcca f93e 7201 0c3f
00000070: 38d0 b83e d622 a53d e94b 533c c0b8 ed3d
00000080: 086c 8d3d 941d 11bf e009 313e 4a75 eebd
00000090: 6b6e ecbe b4c4 87bc cb44 893e 4865 043f
000000a0: 14bc 74bf 26ce b73e 8e45 0cbf 574f 4bbd
000000b0: 280e f83c a6c3 16be 0f06 4abd f70b 9b3e
000000c0: a16b 293e f9bc 2fbe 775d a9be 295c 71be
000000d0: 8c1d e33c 3658 febd 9b03 2abe 78ec a23e
000000e0: 1e8c a2bd a520 04bf c895 a7be 2a87 a3bd
000000f0: 08a7 443e 29f3 063e fda1 ba3d 1c3e 05be
00000100: 0384 043f cd91 913c c67a 083f bf11 353f
00000110: 193e 7cbe 63d8 083f e573 623d 239e e4bd
00000120: c725 5abf 7313 593e 5fd0 58bf e567 1ebf
00000130: 2674 123e dd05 003f 536c 043d 2d6c 733e
00000140: a6c9 3c3e 2310 b8be a598 c4bf 60ab 7e3f
00000150: 1ae2 4cbf b28e cabf 3e3f 153e 1b59 ac3e
00000160: 27e3 e33e afef 703f 7027 9abe 8158 3e3e
00000170: 112a 053e 2910 a2bf 0ef6 65bf 85ad 603e
00000180: 5d9e 8d3e 05b7 ac3d 9111 2dbe 4356 a23d
00000190: 3443 8dbf 060a 943e 81a4 bdbe ec6d 4dbf
000001a0: 72a9 493f 3365 48bf df89 533c 7ca6 973e
000001b0: 059c ea3d c9dd 55be 9cf2 183f 83e1 0b3f
000001c0: b92b f73e d8b4 9e3e 4cc5 2a3f 6807 433f
000001d0: e572 cb3d fc96 8f3d b1e1 ce3e ce68 fabb
000001e0: 37b6 253e fbbb b9bc 14b6 2cbd 7dcc 8e3e
000001f0: e331 d1be 3f4f ba3e 475d 26bd d8b2 623e
00000200: 597f f93e dea8 b5be 4dd3 7b3f 97c5 7f3e
00000210: e9f9 df3e a18a ecbd e8b8 a23e 9fd5 30be
00000220: b9cc 6bbe 9342 3cbd ceb9 e63e 9be7 43be
00000230: 0ef2 163f 7f4e 203f 55b2 033f a0dc 6b3e
-0.7921812 0.16432631 -0.4470967 -0.10996636 0.38557515 0.13120678 -0.19419159 -0.146609
-0.265118 -0.31253323 -1.1185253 0.5151413 0.016001808 0.69914573 -0.6562416 -1.5744127
-0.011645468 0.0486154 -0.31374133 0.22776908 1.014102 0.54476917 -0.63784474 -0.09353039
0.29840425 -1.1578062 0.48787582 0.54689705 0.36096358 0.08063285 0.012896516 0.11607504
0.06905371 -0.5668576 0.17288923 -0.11643465 -0.46177992 -0.016573288 0.26810297 0.5171704
-0.95599484 0.35899466 -0.5479363 -0.04963621 0.030280188 -0.14723071 -0.049322184 0.30282566
0.16544963 -0.17161931 -0.3307912 -0.23570313 0.02772405 -0.12419169 -0.16602938 0.31821036
-0.079368815 -0.5161231 -0.32731462 -0.07984765 0.19204342 0.13178696 0.09112928 -0.13011974
0.51763934 0.017769719 0.5331234 0.70730203 -0.24633063 0.5345518 0.055286307 -0.11162975
-0.85213894 0.21198826 -0.8469295 -0.6187728 0.1430212 0.50008947 0.03232987 0.23771735
0.18436298 -0.3594981 -1.5359083 0.9948025 -0.80032504 -1.5824797 0.14574906 0.33661732
0.4450924 0.9411573 -0.30108213 0.18588449 0.13004328 -1.2661182 -0.89828575 0.21941192
0.27659884 0.08433346 -0.16901232 0.07926609 -1.1036134 0.28913897 -0.3703957 -0.8024585
0.7877418 -0.7827942 0.012911289 0.29619205 0.114555396 -0.20885386 0.5974519 0.5464098
0.48275545 0.30997348 0.667073 0.76183176 0.09934024 0.0701122 0.40406564 -0.007641888
0.1618279 -0.022672644 -0.04216583 0.27890387 -0.40858373 0.36388585 -0.0406163 0.22138536
0.4872997 -0.35480398 0.98369294 0.24977718 0.43745354 -0.11549879 0.31781697 -0.1726899
-0.23027314 -0.045961928 0.45063633 -0.19131319 0.58963096 0.62619776 0.5144399 0.2303338

hidden_layers.0.bias f4 [12]
00000000: bd0e 3bbd eb02 8e3e 93d1 823e e126 21be
00000010: 32d5 a83d f9bd 133e 0dc4 8dbe b930 553e
00000020: 6d74 3fbd ac05 d7be 2e04 06be 5872 5ebe
-0.045668352 0.277366 0.25550517 -0.15737487 0.08243789 0.14427938 -0.27688637 0.20819367
-0.04674189 -0.41996515 -0.13087532 -0.21723306

out_proj.weight f4 [4, 12]
00000000: 61bd 9ebd 28f9 98be d938 5e3e 6d64 293e
00000010: 7eeb d4be 4180 c43e ca73 d7be bd4a 193d
00000020: 27c3 34bf 2bff fc3e d92a a4be 8503 80bd
00000030: 1f58 4d3e 639c 36bf a172 113f 89e5 32be
00000040: 91f9 4f3e de35 b53e 74b9 063d a7da c93e
00000050: e60e 0bbf 8ebf e43e 9c5c 22be 294e b4be
00000060: 301b 823f 346c 0c3d 3652 bf3c 957f c73e
00000070: 88b2 b03e 5861 95be 461f 6d3f 1c10 6f3f
00000080: e085 09be 78eb ecbe 05d4 433e 00b5 1ebf
00000090: 9787 9f3d 006b ffbe 5166 a03e 52d9 2b3f
000000a0: 2378 093e 85c7 2dbf c138 d9be 5daa c53e
000000b0: d256 aa3e 256b 1a3e 8f9e 283e de09 373e
-0.07750965 -0.2987759 0.21701373 0.16542216 -0.41585916 0.383791 -0.42080528 0.03742479
-0.7061028 0.49413428 -0.3206394 -0.06250671 0.20053147 -0.7133238 0.56815535 -0.17470373
0.20310046 0.3539266 0.032891706 0.3942463 -0.5431961 0.44677395 -0.1585564 -0.3521588
1.0164547 0.034282878 0.02335463 0.38964525 0.3451121 -0.2917583 0.92625844 0.93383956
-0.13429976 -0.46273398 0.19123848 -0.61994934 0.077895336 -0.49886322 0.3132806 0.6712848
0.13424735 -0.6788257 -0.42426112 0.3860654 0.33269364 0.15079935 0.16466735 0.17874858

out_proj.bias f4 [4]
00000000: ef3d 11bd 0ca6 a83d 81f6 71be 45d5 9ebd
-0.035459455 0.08234796 -0.2362919 -0.07755522
