approx_vae/encoder_wd1.3.pt (torch, 3271 bytes, 6 tensors)

in_proj.weight f4 [12, 3]
00000000: 8e45 f43e 656b fcbe 20c3 bbbe be41 743f
00000010: 4e2d cb3e 9a07 033f a88f 6ebf f2ab a9be
00000020: 6d91 e5bd 8210 dabe 69df e4be 417d 9ebe
00000030: 509c cdbf 7a04 ef3f 3b5b 0dbf 1d90 153f
00000040: f31d 513f 64a5 89bf 5e18 e53e 066a cd3e
00000050: 8aa0 0bbf 7bfe a3be 8d04 9d3e 82e1 f8be
00000060: fcac 473f c9e2 28bf bf08 0fbe e75e 5cbe
00000070: d780 63be 9936 0ebf 7aaf 1e3f 7d97 e2bd
00000080: 26a6 88be 1d4e 053d 881a 03bf b87c 513e
0.47709316 -0.49300686 -0.36672306 0.95412815 0.39683002 0.51183474 -0.9318795 -0.33138996
-0.112093784 -0.4259072 -0.44701698 -0.30954936 -1.6063328 1.8673241 -0.5521733 0.58423024
0.81686324 -1.0753598 0.44745153 0.40119952 -0.5454184 -0.3203009 0.30667534 -0.4860955
0.7799833 -0.65971047 -0.1396818 -0.21520577 -0.22217117 -0.5555206 0.61986506 -0.1106405
-0.2668926 0.032545198 -0.5121236 0.20457733

in_proj.bias f4 [12]
00000000: 9f0d 2a3f 7566 48be 498e debe 2cff 033e
00000010: 4140 90bd 6f57 5ebd 06af 0d3e ebed b7be
00000020: d431 a93e 0d98 bcbd fad5 5d3e f20f 313f
0.66427034 -0.19570334 -0.4346793 0.12890309 -0.070435055 -0.054282602 0.13836297 -0.35923705
0.33045828 -0.09208689 0.21663657 0.69164956

hidden_layers.0.weight f4 [12, 12]
00000000: 2a2f 72bf c50f 5b3f facf 2fbf 3ed3 0fbf
00000010: c126 0b3f 71f9 cbbd dd38 873e 48a9 ffbd
00000020: 25e2 4fbf aa02 e6be c260 04bf fd5d 5abf
00000030: acf1 e23e 00bb a7be 93e9 623d 05c0 5e3e
00000040: 3276 5e3e 91fa e73e 30d6 e33e 74d1 bc3e
00000050: 8b11 543c 42cd 943f 25a8 333e 2aa6 fcbe
00000060: d3b9 843e 595e 68be e915 e23e 9585 bf3e
00000070: 34b5 923d 1be5 12be 58b0 6cbe 118e 14be
00000080: 7360 bc3e e311 293d 5e63 23be ca21 9f3e
00000090: 371d 023f 503b cf3e 2853 b53e 5ab3 fc3e
000000a0: 1eca b3bf a9ee d0be 4457 a0be 6f49 9c3e
000000b0: 3027 0a3f c009 303f 7d9e 203e 3040 f53d
000000c0: 7279 b5be 8b85 0c3f c72f 953f e29a 063f
000000d0: 00c2 333e 7c37 c4bd b556 79be 7f33 643e
000000e0: b2f4 95bf 9f26 e83e 9975 25bf a9b3 6dbe
000000f0: a152 8a3d 2598 233f 4a22 36bd 267c 053f
00000100: a6a4 89bf b82c ccbf ff78 95be 52ee 29be
00000110: e734 3a3f a169 c7bc 9bb8 c43c 2676 9d3d
00000120: ea80 db3d 94b8 ec3d 7e50 e53e a215 9f3e
00000130: 7447 28bf 1a8b 3fbf 8853 07bf 6018 b6bd
00000140: 93a3 47be 509e 2e3e c89d 05bf 1487 863e
00000150: 14e1 dfbe 0860 823e 9ed1 a53e daac c33d
00000160: 6360 c0be 4d87 b9bf 80ca 60bf 5cdb 9dbe
00000170: 4ca6 61bf 5c96 3cbe f886 98bf 56a0 843e
00000180: f3d6 88bf 81d3 883f ec96 893d 80b0 99be
00000190: 8cf9 443e 6f93 e43e 9320 d73e 508a 613e
000001a0: d6b4 a8bd f6db 053e 4e12 8f3e ce28 b8bf
000001b0: 1556 0d3e 75e3 1f3f 4f3a c43c c86f c9be
000001c0: cd6e 6fbe a40e a8bc c5a0 ec3e fb63 b4bc
000001d0: 7728 303f 4621 9dbc 65b7 303f 0cec a23b
000001e0: f1c6 913e e679 a3be fc46 bb3e d5a9 513e
000001f0: 30e3 383e 1f9b e23e ba0e 453e aac5 ebbe
00000200: 4a9a 86bd ed36 3d3e e807 06be 73fb 363e
00000210: 5ad1 083e b729 073f 0161 673e c1f0 8f3e
00000220: 9533 dfbf 3131 ef3b fd6b a7bd 284b 9ebe
00000230: 40dd 933e 3bfa 603e 9651 b33c 88cc e93d
-0.94603217 0.8557094 -0.6867672 -0.56181705 0.5435601 -0.099596865 0.2641057 -0.1248346
-0.81204444 -0.44923908 -0.5171014 -0.85299665 0.44325006 -0.32759857 0.055398535 0.21752937
0.21724775 0.45308354 0.4449935 0.3687855 0.012943636 1.162514 0.17544611 -0.49345523
0.25923023 -0.22692241 0.4415734 0.37406603 0.07163468 -0.1434521 -0.23114145 -0.14507319
0.36792335 0.041276824 -0.15955874 0.31080467 0.5082583 0.4047494 0.35415006 0.49355584
-1.4046056 -0.40807083 -0.31316578 0.30524775 0.53966045 0.6876488 0.15685458 0.119751334
-0.35444218 0.5489127 1.1655205 0.5258008 0.17554474 -0.09580895 -0.24349482 0.22285269
-1.17153 0.45341966 -0.64632565 -0.23213066 0.067540415 0.6390403 -0.044466294 0.5214256
-1.0753372 -1.5951147 -0.29193875 -0.16594818 0.7273697 -0.02434236 0.024013808 0.07688551
0.10717948 0.11558643 0.44787973 0.31071192 -0.6573403 -0.7482163 -0.52861834 -0.08891368
-0.19495992 0.17052579 -0.5219388 0.2627493 -0.43726408 0.2546389 0.32386488 0.09554453
-0.37573537 -1.4494416 -0.8780899 -0.3083142 -0.88144374 -0.18416733 -1.1916189 0.25903577
-1.0690597 1.0689546 0.06718239 -0.3001747 0.1923582 0.44643733 0.4201704 0.22025418
-0.08237617 0.1307219 0.27943653 -1.4387453 0.13802369 0.62456447 0.023953585 -0.39343095
-0.23382111 -0.020514794 0.46216407 -0.02202033 0.68811744 -0.019180905 0.6902984 0.0049719866
0.28472093 -0.3192894 0.36577594 0.20474942 0.18055415 0.44258973 0.19243899 -0.46049243
-0.06572397 0.18477984 -0.13088953 0.17869358 0.13361111 0.52798027 0.22595598 0.28113368
-1.7437617 0.0072995652 -0.08174894 -0.30916715 0.28879738 0.21970455 0.02188949 0.11415964

hidden_layers.0.bias f4 [12]
00000000: 38bf 963e 011b 7e3d 98c2 66be 8e0b ccbe
00000010: ae8b 9ebd ac49 82be 5c17 6c3e 364f 003f
00000020: a3be c6be eb41 64be f603 cd3d 3d2a e9be
0.29442763 0.06203747 -0.22535169 -0.39852566 -0.077414855 -0.25446832 0.23055786 0.50120866
-0.3881732 -0.2229077 0.10010521 -0.45540038

out_proj.weight f4 [4, 12]
00000000: 8055 4dbc 0377 dc3d ffa3 08bf 8347 c5be
00000010: f5e4 0fbf c751 2b3e 2d83 25bf 7e81 8dbe
00000020: facd 1a3f 52c7 883e 8a0b e0bd 5c2c d43e
00000030: 6424 033f 8fed 893e 49ce c8be 2513 33bf
00000040: 3540 c9be 3346 a8be 9009 a5be 8e9a dfbe
00000050: bd5c 093f 2dab 0d3f f055 34be 07d9 9bbe
00000060: 2c97 2a3f 1134 833c cfc2 703e 7694 4cbf
00000070: f536 643f 844c 38be 59f8 543e cf38 2f3e
00000080: a8d3 06be 588d 2abf 3d4a 7f3e 17cb e4bd
00000090: 2669 78be 8425 003f a206 523e cbbf 843e
000000a0: bf4c 953c 92ed 50bf b254 26be c9cb 48bf
000000b0: fe35 413e 54b9 babe a1a4 e93e 387b d2be
-0.012532592 0.10764887 -0.5337524 -0.38531122 -0.56208736 0.16730414 -0.64653283 -0.27637857
0.60470545 0.2671457 -0.10939701 0.41440094 0.512274 0.26939055 -0.39219883 -0.6995109
-0.393068 -0.32866058 -0.32233858 -0.43672603 0.5365713 0.5533932 -0.17610908 -0.30439016
0.6663692 0.016016038 0.23511814 -0.79914033 0.8914636 -0.17997938 0.20797862 0.17111515
-0.13166678 -0.66621923 0.24930663 -0.11171549 -0.24258861 0.50057244 0.20510343 0.25927576
0.018225072 -0.81612504 -0.16243246 -0.7843595 0.18868253 -0.3646952 0.45633414 -0.41109633

out_proj.bias f4 [4]
00000000: 3435 8a3e e9d6 a93e 63a6 113e 6c8f 80bd
0.26993716 0.33171776 0.14223628 -0.062773556
