approx_vae/encoder_sd1.5.pt (torch, 3271 bytes, 6 tensors)

in_proj.weight f4 [12, 3]
0	0x3f6c60ea	0.9233538
1	0x3eb842a6	0.3598835
2	0xbf9ecda0	-1.2406502
3	0x3eebf0be	0.4608211
4	0x3f909186	1.129441
5	0x3dd88025	0.10571317
6	0x3ec98669	0.3936036
7	0xbf4388ff	-0.76380914
8	0xbea0a1cc	-0.3137344
9	0xbeaa6f75	-0.3328816
10	0x3e1c3c28	0.15257323
11	0xbe710316	-0.23536333
12	0x3f038aad	0.5138348
13	0x3eac54fc	0.33658588
14	0x3f5398c6	0.8265499
15	0x3daf44a2	0.085580125
16	0xbf9ad42e	-1.2096002
17	0x3f82ce0a	1.0219128
18	0x3df1684f	0.117874734
19	0xbe73c87d	-0.23806949
20	0x3ee0680f	0.4382939
21	0xbf0488bf	-0.5177116
22	0xbf8306bb	-1.0236429
23	0xbf6241be	-0.88381565
24	0x3fb4fad0	1.4139042
25	0xbfe0b577	-1.7555379
26	0x3ed1a8b1	0.40949014
27	0x3e23fbaa	0.16013971
28	0xbf78ea87	-0.9723286
29	0x3dec46ff	0.11536979
30	0xbf3fd646	-0.7493633
31	0xbecf002c	-0.4042982
32	0xbd711ede	-0.058867328
33	0x3f309d64	0.6899016
34	0x3ec75c90	0.38937807
35	0xbca58374	-0.020204283

in_proj.bias f4 [12]
0	0x3eea7c5d	0.45798007
1	0xbf2d67c4	-0.6773646
2	0xbe026654	-0.12734348
3	0x3f0cc5be	0.5498923
4	0xbebbb95d	-0.36664858
5	0x3e43aa85	0.19108017
6	0x3ed7a332	0.42116696
7	0xbea983cd	-0.3310837
8	0x3c94191e	0.018078383
9	0xbe5a3b7d	-0.21311755
10	0xbdfce23d	-0.12347839
11	0xbe2d6c83	-0.16935925

hidden_layers.0.weight f4 [12, 12]
0	0xbd59c9ac	-0.053170845
1	0xbcf41371	-0.029794427
2	0xbe5ab436	-0.21357808
3	0xbe13b0b2	-0.14422873
4	0x3dabda2e	0.08391224
5	0xbecda830	-0.4016738
6	0xbed37768	-0.41302037
7	0x3e83bba6	0.25729102
8	0xbe7c6952	-0.24649552
9	0xbefe8364	-0.49709618
10	0xbe39271d	-0.18081327
11	0xbb5276d5	-0.0032114286
12	0x3e8956ed	0.26824132
13	0x3e6801c4	0.22656924
14	0x3e8dc6e4	0.27690804
15	0xbf090ac6	-0.53532064
16	0x3f388bb2	0.7208816
17	0x3d6c9d4d	0.0577672
18	0x3e0a4c20	0.13505602
19	0xbeeaff9d	-0.45898142
20	0x3eefc480	0.46829605
21	0xbd80c340	-0.06287241
22	0xbe1e3425	-0.15449579
23	0x3f464bea	0.77459586
24	0xbe72c7f4	-0.23709089
25	0x3e8cffde	0.2753896
26	0xbf3a855f	-0.7285976
27	0x3c59d14a	0.013294527
28	0x3e65a852	0.2242749
29	0xbe6323a0	-0.22181559
30	0x3ecb2b38	0.3968141
31	0xbe2dc378	-0.16969097
32	0xbe17df41	-0.14831258
33	0xbf2bb514	-0.6707318
34	0xbe36c7b9	-0.17849626
35	0xbcbc21bf	-0.02296531
36	0xbe9cb78d	-0.30608788
37	0x3ec16e19	0.3777931
38	0xbd9a9038	-0.07547039
39	0xbf1035e8	-0.56332254
40	0x3e437105	0.19086082
41	0x3db067d9	0.08613557
42	0xbf138325	-0.57621986
43	0x3f6d5caa	0.9271952
44	0x3d27f521	0.041005258
45	0xbd448693	-0.047979902
46	0x3e122c3b	0.14274685
47	0xbde21d43	-0.110407375
48	0xbeb62aef	-0.3557963
49	0x3f4b06fa	0.7930752
50	0xbf8a2394	-1.0792108
51	0x3f6c8f15	0.92405826
52	0xbe5cda4b	-0.21567647
53	0xbf40976c	-0.7523105
54	0xbe061b7b	-0.1309642
55	0x3e8a28e4	0.26984322
56	0xbff1282b	-1.8840383
57	0xbf64167d	-0.89096814
58	0x3e2780f0	0.1635778
59	0xbe3c3456	-0.1837934
60	0x3e7a9079	0.24469174
61	0x3e8417d9	0.25799444
62	0x3f1d633d	0.6147955
63	0x3ea6476d	0.3247637
64	0xbd2cd9a5	-0.04219975
65	0x3cfd8dbc	0.030951373
66	0xbf738846	-0.9512981
67	0x3ee43a79	0.4457586
68	0x3d307aca	0.04308585
69	0x3ee3e661	0.44511703
70	0x3effd333	0.4996582
71	0x3e88fa55	0.26753488
72	0x3ef72958	0.4827373
73	0xbe61e90d	-0.22061558
74	0xbdd8a3f0	-0.105781436
75	0x3e6b8bc0	0.23002529
76	0x3e01697e	0.12637898
77	0xbf24b2c4	-0.64335275
78	0xbb13fe03	-0.0022581823
79	0x3f07a686	0.5298847
80	0xbf09542a	-0.5364405
81	0xbe88c346	-0.26711482
82	0x3e7be230	0.24598002
83	0xbe9004ad	-0.28128567
84	0xbf4427e2	-0.76623356
85	0x3e0dacb9	0.1383542
86	0xbe0669f4	-0.13126355
87	0xbdfbb7b4	-0.12290898
88	0x3f743b29	0.9540277
89	0x3e14c774	0.1452921
90	0x3f017176	0.5056375
91	0x3f04710e	0.5173501
92	0x3e6bc36b	0.23023765
93	0x3d433f98	0.04766807
94	0x3e308da1	0.17241527
95	0xbe980460	-0.29690838
96	0xbf95f114	-1.1714196
97	0xbde511bf	-0.111850254
98	0xbed04738	-0.40679336
99	0x3f011f39	0.50438267
100	0x3e74a7b1	0.23892094
101	0x3ede9e42	0.43480116
102	0x3ea179ec	0.31538332
103	0x3eadad8b	0.33921465
104	0xbf18671e	-0.59532344
105	0xbc75b565	-0.014996861
106	0x3f3482b2	0.70511925
107	0xbe8957ab	-0.26824698
108	0xbe41e811	-0.18936183
109	0x3f2c15f1	0.6722098
110	0xbefa9019	-0.48938063
111	0xbd52b7c3	-0.05144478
112	0xbd40a5b1	-0.047033016
113	0xbe6c6939	-0.23087014
114	0xbe4aa2d5	-0.19788678
115	0x3e5d9918	0.21640432
116	0x3e2847ad	0.16433592
117	0xbe584350	-0.21119428
118	0xbe948c30	-0.29013205
119	0x3e1f1dac	0.15538663
120	0x3f34520e	0.70437706
121	0x3f43574d	0.76305085
122	0x3e86caa8	0.2632649
123	0x3e9ff291	0.3123975
124	0x3e813072	0.25232273
125	0xbf70e47a	-0.9409863
126	0xbdabd5ec	-0.08390412
127	0x3ee52396	0.44753712
128	0xbea9d267	-0.33168337
129	0xbe23be46	-0.15990552
130	0xbea761c0	-0.32691765
131	0x3f188d77	0.5959086
132	0xbf853e93	-1.0409721
133	0xbe9a4870	-0.3013339
134	0x3e749a9e	0.23887107
135	0x3e583289	0.21113028
136	0xbec99bc0	-0.3937664
137	0x3de6cb00	0.11269188
138	0x3eda0bf3	0.42587242
139	0x3e9da20a	0.30787688
140	0x3e7cdb86	0.24693117
141	0x3ef575db	0.4794148
142	0x3f0bf1a7	0.5466561
143	0xbdf130d7	-0.117768936

hidden_layers.0.bias f4 [12]
0	0xbe98e969	-0.29865578
1	0x3dc1ae14	0.09457031
2	0x3e2ae4bb	0.16688816
3	0xbf314dc4	-0.69259286
4	0x3ea125b4	0.31474078
5	0xbd9638ba	-0.073350385
6	0xbd83407d	-0.064087845
7	0x3dd4e3dd	0.10395024
8	0xbda1f9ee	-0.079089984
9	0xbe9b30a6	-0.30310553
10	0xbc801c43	-0.015638476
11	0x3edb8de4	0.4288169

out_proj.weight f4 [4, 12]
0	0x3cafb15c	0.021446876
1	0x3ebc26f3	0.36748466
2	0x3ee317b0	0.4435401
3	0xbec28682	-0.37993246
4	0xbb46bb29	-0.0030323958
5	0xbd463a69	-0.048395548
6	0xbeacc460	-0.33743572
7	0xbe808edd	-0.25108996
8	0xbeeed03a	-0.4664324
9	0x3e1b80d5	0.15185864
10	0x3ed01c85	0.4064676
11	0xbe4a6aa6	-0.19767246
12	0x3e0c4790	0.13699174
13	0x3e9d8641	0.3076649
14	0x3e910e18	0.28331065
15	0x3e923199	0.28553465
16	0x3f11b83e	0.56921756
17	0xbee91bf6	-0.45529145
18	0x3bac6014	0.005260477
19	0xbc374dc1	-0.011187972
20	0xbef182ed	-0.471702
21	0x3e2b2846	0.16714582
22	0x3f41b0fe	0.75660694
23	0xbf33e728	-0.7027459
24	0x3e865984	0.2624017
25	0xbf66bc88	-0.90131426
26	0x3edee704	0.43535626
27	0xbe9e7bf2	-0.30953938
28	0x3f27885b	0.65442437
29	0xbf223e63	-0.63376445
30	0x3ed6fb85	0.4198877
31	0x3e2721a5	0.16321428
32	0x3f790c02	0.9728395
33	0x3a1e923e	0.00060490135
34	0xbc96a6c2	-0.018390063
35	0xbe3ed605	-0.1863633
36	0xbdca65e0	-0.09882712
37	0xbe876e37	-0.26451275
38	0xbf118d52	-0.5685626
39	0x3e064b9b	0.13114779
40	0x3ef2e672	0.4744144
41	0x3eff60b6	0.49878472
42	0x3f1854d3	0.5950443
43	0xbf8390a3	-1.0278515
44	0xbe5c46cb	-0.2151138
45	0xbd5f57cc	-0.05452709
46	0x3e4ed974	0.2020014
47	0xbe14d249	-0.14533342

out_proj.bias f4 [4]
0	0x3ec8da59	0.39229086
1	0xbe11ce1e	-0.14238784
2	0xbb81f4af	-0.003965936
3	0xbd4b9185	-0.049699325
