approx_vae/encoder_sd1.4.pt (torch, 3271 bytes, 6 tensors)

in_proj.weight f4 [12, 3]
0.62189245 0.25275806 0.0325553 1.0684172 -0.56480527 -0.32696134 -0.9100347 -0.78785866
0.061510306 0.4556638 -0.7741178 -0.38138473 0.19824877 -1.3209735 1.2504892 0.9764355
-0.64191204 -0.27238885 -0.45394772 -0.3898065 0.25535172 -0.33913207 -0.2358172 0.45900446
0.87426585 0.49078032 0.17625412 -0.4193875 -0.19545677 -0.39120212 -0.0008958256 -0.54483986
-0.6628981 0.5539057 0.678296 0.8300307
00000000: 5834 1f3f 8169 813e b558 053d e5c1 883f
00000010: 1497 10bf 7a67 a7be 09f8 68bf 1bb1 49bf
00000020: 3bf2 7b3d c44c e93e 962c 46bf dc44 c3be
00000030: ba01 4b3e a915 a9bf 0810 a03f adf7 793f
00000040: 5954 24bf 8d76 8bbe d66b e8be b894 c7be
00000050: 76bd 823e b8a2 adbe 107a 71be a202 eb3e
00000060: e3cf 5f3f 8f47 fb3e f67b 343e f5b9 d6be
00000070: d225 48be a54b c8be d7d5 6aba a07a 0bbf
00000080: b1b3 29bf c4cc 0d3f cfa4 2d3f e47c 543f

in_proj.bias f4 [12]
-0.1795931 -0.2290599 -0.47829825 -0.19447115 0.27589512 0.15571393 0.060878932 0.09775415
-0.15408044 -0.2147509 0.52028173 -0.329289
00000000: 41e7 37be ae8e 6abe 82e3 f4be 7223 47be
00000010: 2042 8d3e 7973 1f3e 305c 793d 5433 c83d
00000020: 43c7 1dbe a9e7 5bbe 2f31 053f 9198 a8be

hidden_layers.0.weight f4 [12, 12]
-0.28410769 -0.48949182 -0.01783764 -0.089916356 -0.53485614 0.018664159 0.207902 0.18845186
-0.45265242 0.43017277 0.8181556 -0.23682486 0.4494415 0.056933388 0.07330953 0.49828196
0.8200689 0.6134101 0.29359847 0.22588149 0.5911696 0.024078626 0.12840432 -0.022197254
-0.37279603 -0.81037194 0.782752 -0.5368561 -0.028735025 -0.99148846 0.45887586 -0.15570678
-0.24629115 0.24727722 -0.22417241 0.6023273 0.36776078 0.45631653 0.001505328 -0.07971921
-0.23907498 0.123065606 -0.21083178 -0.13947567 0.64532065 -0.003514626 0.11891528 0.623752
-0.15580972 -0.7038527 0.46926737 -0.23691507 0.9852649 -0.1520236 0.34288242 0.09235786
0.021607561 -0.2582031 0.48475936 0.79491705 0.3746109 0.04173011 -0.17889242 -0.32735327
-0.16149467 -0.5784672 -0.14173219 -0.19391485 0.23952265 -0.19741379 -0.052499585 0.39212042
-0.27782172 -0.5043148 0.46847644 -0.30872208 0.9445176 -0.078103825 0.38608667 0.1125953
-0.50887203 0.3287078 -0.044977114 0.26475352 0.24741177 -0.4970034 1.1668166 0.40614125
0.0053416407 -0.54832083 -0.40633675 -0.6634098 -0.03941932 0.21350166 0.48226717 1.1995841
-0.515564 -0.29880914 0.91979015 0.46744046 -0.00018215843 0.38169882 0.025780646 0.12171015
-0.5003204 0.26387337 0.3277185 0.24490248 0.32013875 -0.473731 -0.3046724 0.3125016
-2.5528913 -0.25044793 -0.30703107 -0.5362953 0.41298857 0.36634585 1.0281942 0.6007056
-0.09601638 -1.0466077 0.3781196 -1.6806759 -1.1257161 -1.0337734 0.6102908 -0.17780973
-0.043191675 -0.32991916 0.3744466 0.5118056 -0.5197225 -0.48609242 0.5175897 0.097994335
0.40503386 -0.17066132 0.35352302 0.09192132 -0.23437025 0.33027813 0.2449901 0.3205037
00000000: 9076 91be ac9e fabe 3e20 92bc 1126 b8bd
00000010: 55ec 08bf 94e5 983c 43e4 543e 86f9 403e
00000020: 0fc2 e7be 9b3f dc3e a572 513f 3782 72be
00000030: 321d e63e fc32 693d 4f23 963d d01e ff3e
00000040: 09f0 513f 7208 1d3f 8a52 963e 7a4d 673e
00000050: e456 173f 8a40 c53c 6c7c 033e 04d7 b5bc
00000060: 1fdf bebe 8974 4fbf 6f62 483f 676f 09bf
00000070: b765 ebbc 30d2 7dbf c7f1 ea3e 9971 1fbe
00000080: bf33 7cbe 3d36 7d3e 748d 65be 1f32 1a3f
00000090: 244b bc3e 52a2 e93e 6d4e c53a d343 a3bd
000000a0: 12d0 74be d209 fc3d 49e4 57be b6d2 0ebe
000000b0: bc33 253f a455 66bb db89 f33d 36ae 1f3f
000000c0: 958c 1fbe b12f 34bf d043 f03e dd99 72be
000000d0: 523a 7c3f 13ac 1bbe 498e af3e 1e26 bd3d
000000e0: 5702 b13c 3233 84be 6132 f83e af7f 4b3f
000000f0: 00cd bf3e 31ed 2a3d 932f 37be d99a a7be
00000100: dc5e 25be 6d16 14bf 3e22 11be 9d91 46be
00000110: 6d45 753e d726 4abe ce09 57bd 02c4 c83e
00000120: a63e 8ebe c61a 01bf 25dc ef3e d210 9ebe
00000130: e8cb 713f e6f4 9fbd 27ad c53e 5d98 e63d
00000140: 7045 02bf 644c a83e ec39 38bd c68d 873e
00000150: 8359 7d3e 3b77 febe 3f5a 953f bff1 cf3e
00000160: ee08 af3b c15e 0cbf 5f0b d0be 3ad5 29bf
00000170: 2776 21bd 2ea0 5a3e b9eb f63e f98b 993f
00000180: 01fc 03bf 83fd 98be 5e77 6b3f 5b54 ef3e
00000190: c801 3fb9 076e c33e ef31 d33c 2c43 f93d
000001a0: ff14 00bf 691a 873e b8ca a73e b7c7 7a3e
000001b0: 3ae9 a33e df8c f2be 05fe 9bbe 3600 a03e
000001c0: 9262 23c0 b63a 80be 2d33 9dbe a64a 09bf
000001d0: 3d73 d33e af91 bb3e de9b 833f d8c7 193f
000001e0: 3ca4 c4bd 3ef7 85bf e498 c13e 6320 d7bf
000001f0: 7717 90bf b052 84bf 053c 1c3f c113 36be
00000200: c1e9 30bd 2aeb a8be 77b7 bf3e b105 033f
00000210: 890c 05bf 1be1 f8be c280 043f 41b1 c83d
00000220: 9960 cf3e d7c1 2ebe f800 b53e 3f41 bc3d
00000230: c1fe 6fbe 371a a93e afde 7a3e 1019 a43e

hidden_layers.0.bias f4 [12]
0.05348713 0.30718705 -0.14869834 -0.24701962 0.41362512 -0.16772793 0.053669125 -0.64690757
-0.049124535 0.27304152 -0.009432779 -0.6231507
00000000: 5215 5b3d 9f47 9d3e 6144 18be b6f2 7cbe
00000010: acc6 d33e dfc0 2bbe 28d4 5b3d bc9b 25bf
00000020: cf36 49bd 19cc 8b3e f18b 1abc ce86 1fbf

out_proj.weight f4 [4, 12]
-0.46899256 -0.021571886 -0.15737242 0.64812136 0.16781865 0.1138723 -0.5231114 -0.58312917
0.035721768 0.3255422 -0.036154717 -0.6601382 -0.5616816 -0.043513462 -0.16918547 0.503783
-0.15936202 0.61039865 -0.33368692 -0.0605649 -0.5268768 0.7265533 0.6719779 -0.39249608
0.26859838 -0.8252388 1.3101299 -0.35194448 0.21918644 -0.020055695 0.45956948 -0.6549743
-0.4970439 0.17411636 1.0525728 -0.023398368 0.28930303 0.0022926333 -0.033042446 -0.29571396
-0.8217905 -0.042082652 0.037985124 -0.37440833 0.35674673 0.6333708 0.46944335 0.20909368
00000000: cb1f f0be 86b7 b0bc 3c26 21be 48eb 253f
00000010: a7d8 2b3e e135 e93d a1ea 05bf f447 15bf
00000020: fd50 123d 78ad a63e f816 14bd d1fe 28bf
00000030: 5eca 0fbf 2c3b 32bd f53e 2dbe ecf7 003f
00000040: cc2f 23be 1643 1c3f 03d9 aabe e712 78bd
00000050: 66e1 06bf 66ff 393f be06 2c3f 3ff5 c8be
00000060: ba85 893e da42 53bf 56b2 a73f 1132 b4be
00000070: 6972 603e d74b a4bc b14c eb3e 65ac 27bf
00000080: 8a7c febe 8f4b 323e b5ba 863f efad bfbc
00000090: 871f 943e 0140 163b 8457 07bd d267 97be
000000a0: dd60 52bf dc5e 2cbd 4a96 1b3d 73b2 bfbe
000000b0: 82a7 b63e 9724 223f e15a f03e a71c 563e

out_proj.bias f4 [4]
0.3545448 0.0070976433 0.1925056 0.16478208
00000000: e586 b53e 5993 e83b 3020 453e a2bc 283e
