approx_vae/encoder_wd1.5.pt (torch, 3271 bytes, 6 tensors)

in_proj.weight f4 [12, 3]
0	0xbe9726a6	-0.29521674
1	0xbf4fe7d8	-0.8121314
2	0x3f1c88cd	0.6114624
3	0x3df844bf	0.12122487
4	0xbeeca851	-0.46222165
5	0xbe5d3a14	-0.21604186
6	0x3e16c5c3	0.14723878
7	0xbeceeb99	-0.40414122
8	0x3f13dffa	0.57763636
9	0x3e82052b	0.25394568
10	0xbe250ae5	-0.16117437
11	0x3f0499ed	0.5179737
12	0xbfa123c5	-1.2589041
13	0x3ee8caca	0.45467216
14	0x3e9e855d	0.30961123
15	0x3f294d4a	0.6613356
16	0xbf056d29	-0.5211969
17	0x3e985bdb	0.2975758
18	0x3f2e3197	0.6804442
19	0x3f55b3ba	0.83477366
20	0xbe14e04e	-0.1453869
21	0xbf21b904	-0.63172936
22	0xbef58c7a	-0.47958738
23	0xbf059288	-0.52176714
24	0xbf397259	-0.72440106
25	0x4020b3c6	2.5109725
26	0xc00e1f0a	-2.2206445
27	0x3dfe01a9	0.124026604
28	0x3eaa2062	0.3322783
29	0x3f33a693	0.7017605
30	0x3ea48de2	0.32139498
31	0x3ea24c8f	0.31699035
32	0x3f08f790	0.5350275
33	0x400b9ded	2.181514
34	0xbfdb2754	-1.7121377
35	0xbef18f0d	-0.47179452

in_proj.bias f4 [12]
0	0x3ef07833	0.46966705
1	0xbd46c812	-0.048530646
2	0xbe801781	-0.25017932
3	0x3e217153	0.15765886
4	0x3e6df039	0.23236169
5	0x3e915fd1	0.28393415
6	0xbc1d2e6a	-0.0095935855
7	0xbf26e1c3	-0.65188235
8	0xbeaded14	-0.3396994
9	0xbd42d8f2	-0.047570176
10	0xbdc017a6	-0.093795106
11	0xbdb5540b	-0.088539205

hidden_layers.0.weight f4 [12, 12]
0	0x3e7f1bf1	0.24913003
1	0x3f0ef516	0.5584272
2	0x3eaa5051	0.33264402
3	0x3d39c2aa	0.04535166
4	0x3d89b64a	0.06724222
5	0x3ee51218	0.44740367
6	0xbe369c82	-0.1783314
7	0x3fc25ec6	1.5185173
8	0xbe975741	-0.29558757
9	0xbe805606	-0.2506563
10	0xbd8a4565	-0.06751517
11	0xbe204aaf	-0.1565349
12	0x3f139f42	0.57664883
13	0x3e9fcc2c	0.31210458
14	0x3f3bb96b	0.733298
15	0x3edfe471	0.43728974
16	0xbf8859f6	-1.0652454
17	0x3ea721a9	0.32642868
18	0xbf66b803	-0.9012453
19	0x3fb546d9	1.4162246
20	0xbfdcc314	-1.7247033
21	0x3ea4c827	0.32183954
22	0x3e4f8017	0.20263706
23	0xbecb9dfa	-0.39768964
24	0x3ef7dc87	0.48410437
25	0xbdf5b036	-0.119965
26	0x3f0d1348	0.55107546
27	0xbe9e51bb	-0.3092173
28	0x3ee8f4f3	0.4549938
29	0xbf8d47bb	-1.1037515
30	0x3e9900e1	0.29883483
31	0x3f830c70	1.0238171
32	0xbdafcd6e	-0.085841045
33	0x3f08d0c9	0.5344358
34	0x3f0856d0	0.53257465
35	0xbf94aaa5	-1.1614577
36	0xbf190b46	-0.59782827
37	0x3d3d6ce3	0.04624642
38	0xbe408b7d	-0.1880321
39	0xbcebc22c	-0.028779112
40	0xbe8ce080	-0.2751503
41	0x3e94b8f0	0.29047346
42	0x3efaccee	0.48984474
43	0x3dc4ea16	0.09614961
44	0x3ed14bb5	0.40878072
45	0x3e8350f0	0.25647688
46	0x3ed98538	0.4248445
47	0x3dd5afd5	0.10433928
48	0xbedf11a3	-0.43568143
49	0xbe429bf0	-0.19004798
50	0xbe12b05c	-0.14325088
51	0xbe0434e7	-0.12910806
52	0x3eef1f14	0.46703398
53	0xbdeb8fb6	-0.1150202
54	0x3eef5488	0.4674418
55	0xbee56afd	-0.44808188
56	0x3d9c2fa9	0.07626278
57	0x3ec26750	0.37969446
58	0x3ea830e0	0.3284979
59	0xbf9fbb46	-1.2479026
60	0xbede0e83	-0.43370447
61	0xbe902932	-0.2815643
62	0xbe580985	-0.21097381
63	0x3ebac90a	0.36481506
64	0xbec50ba7	-0.38485453
65	0x3ea51704	0.32244122
66	0x3eec176f	0.46111628
67	0xbd9c62d6	-0.07636039
68	0xbe55b198	-0.20868528
69	0x3e2912fa	0.16511145
70	0x3e81e2e9	0.2536843
71	0x3dfb6d7c	0.12276742
72	0x3e03a12b	0.1285445
73	0x3e9681dc	0.2939595
74	0x3eb80abd	0.35945693
75	0xbefb94c2	-0.4913693
76	0x3f009ca5	0.5023902
77	0xbec67b40	-0.38765907
78	0xbf1df29f	-0.61698335
79	0x3f4e23e4	0.80523515
80	0x3f5d5811	0.86462504
81	0xbe99eb90	-0.30062532
82	0xbdf813af	-0.12113129
83	0x3e501c8d	0.20323391
84	0xbe4793b0	-0.19489932
85	0xbdd471a3	-0.10373237
86	0xbf348ba9	-0.70525604
87	0xbe07acf9	-0.13249578
88	0xbf951fe0	-1.1650352
89	0x3e685f7d	0.22692676
90	0x3e80a5bd	0.25126448
91	0x3f81e21a	1.0147126
92	0x3c0f359f	0.008740812
93	0xbe3e56dc	-0.18587822
94	0xbdd87b43	-0.10570385
95	0x3f01ae8f	0.5065698
96	0x3f1bc796	0.6085142
97	0xbeab6d98	-0.3348205
98	0x3e9571ae	0.29188293
99	0x3e56e241	0.20984747
100	0x3ea3b1e2	0.3197165
101	0x3f10eb42	0.56608975
102	0xbe0b177b	-0.13583176
103	0x3ea5c718	0.3237846
104	0xbee4ec51	-0.44711545
105	0x3e73cc3a	0.23808375
106	0x3eece9c9	0.46272114
107	0x3e9c5a09	0.3053744
108	0xbf7694eb	-0.9632098
109	0xbe4a28da	-0.19742146
110	0xbf101507	-0.56282085
111	0xbf84d4c1	-1.0377427
112	0xbf61d736	-0.8821901
113	0xbf726ddc	-0.9469888
114	0xbd8d29b2	-0.068927184
115	0xbf7c82c9	-0.9863706
116	0xbf61e94f	-0.88246626
117	0xbf894494	-1.0724053
118	0xbf599c77	-0.8500437
119	0xbf205363	-0.6262724
120	0xbf390cbf	-0.72285074
121	0xbdcaebe2	-0.09908272
122	0xbf130208	-0.57424974
123	0x3e3320a0	0.17492914
124	0xbf60b228	-0.87771845
125	0x3e47ce07	0.19512187
126	0xbee90708	-0.45513177
127	0x3d9db9ba	0.0770144
128	0x3f034529	0.51277405
129	0xbebb64be	-0.36600298
130	0xbe3466aa	-0.17617288
131	0x3d17d10b	0.037064593
132	0xbede3dfb	-0.43406662
133	0xbe0d53c3	-0.13801484
134	0x3b612d75	0.003435937
135	0x3dfc9ffa	0.123352006
136	0x3e8ff55e	0.28116888
137	0x3ea50583	0.32230768
138	0x3f0fad62	0.56123936
139	0xbe8cae28	-0.2747662
140	0xbe66dc37	-0.22544943
141	0x3e950db3	0.29112014
142	0x3ee102e2	0.43947512
143	0x3c46ed82	0.012141587

hidden_layers.0.bias f4 [12]
0	0x3d0af9e9	0.03392974
1	0xbdffc973	-0.12489595
2	0xbd639b49	-0.055568013
3	0xbd78ad5d	-0.060712207
4	0xbdb830f3	-0.08993711
5	0xbd4c497f	-0.04987478
6	0xbe9f779f	-0.3114595
7	0x3dd92e51	0.10604537
8	0x3e142d2f	0.14470361
9	0x3e61ee20	0.22063494
10	0xbcba6fe7	-0.022758437
11	0xbd1df154	-0.038560227

out_proj.weight f4 [4, 12]
0	0xbf63aa51	-0.8893176
1	0x3e0e3393	0.13886862
2	0xbf281ff6	-0.6567377
3	0x3e89b105	0.26892868
4	0x3d3f5c04	0.046718612
5	0x3eea5707	0.45769522
6	0x3e63ba2e	0.2223899
7	0x3ea37283	0.31923303
8	0xbe4e33e7	-0.20136987
9	0xbf069c91	-0.5258265
10	0xbe79fb6a	-0.24412313
11	0x3f0e4afc	0.5558317
12	0xbf0e37a2	-0.5555364
13	0xbf4c3edb	-0.7978341
14	0xbdccd4da	-0.10001536
15	0x3f1bf854	0.60925794
16	0x3f160aa5	0.5860999
17	0x3e97c2d0	0.29640818
18	0xbe13e3a8	-0.14442313
19	0xbd3fdca2	-0.04684127
20	0xbef7eaa7	-0.48421213
21	0x3e70ff99	0.23535003
22	0x3e853d66	0.26023406
23	0x3edd7236	0.432512
24	0xbeb83087	-0.35974523
25	0xbea9889b	-0.33112034
26	0x3fa4c2c1	1.2871934
27	0x3ce4a797	0.027911944
28	0x3ea2140a	0.31655914
29	0xbedae5b6	-0.4275338
30	0x3e824aba	0.25447637
31	0xbf06ba5b	-0.52628106
32	0xbf021732	-0.50816643
33	0x3e9d266c	0.30693376
34	0xbeab640d	-0.3347477
35	0xbe011f1e	-0.12609527
36	0x3f339b18	0.7015853
37	0xbf6bb390	-0.92070866
38	0xbefe647c	-0.49686038
39	0xbe6bfd1e	-0.23045775
40	0x3e89530b	0.2682117
41	0xbe126005	-0.14294441
42	0x3ed8d24d	0.42347947
43	0x3f165f7d	0.58739454
44	0xbf8ba1c9	-1.0908748
45	0xbf5e3314	-0.8679669
46	0xbd6c824d	-0.057741452
47	0xbe0db2e1	-0.13837768

out_proj.bias f4 [4]
0	0xbd856314	-0.06513038
1	0x3e359ef2	0.17736414
2	0x3e7869ed	0.24259157
3	0x3dc0e8d0	0.094194055
